{
  "nodes": [
    {
      "op": "null", 
      "name": "data", 
      "inputs": []
    }, 
    {
      "op": "null", 
      "name": "mobilenet0_conv0_weight", 
      "attrs": {
        "__dtype__": "0", 
        "__lr_mult__": "1.0", 
        "__shape__": "(8L, 3L, 3L, 3L)", 
        "__storage_type__": "0", 
        "__wd_mult__": "1.0"
      }, 
      "inputs": []
    }, 
    {
      "op": "Convolution", 
      "name": "mobilenet0_conv0", 
      "attrs": {
        "dilate": "(1, 1)", 
        "kernel": "(3, 3)", 
        "layout": "NCHW", 
        "no_bias": "True", 
        "num_filter": "8", 
        "num_group": "1", 
        "pad": "(1, 1)", 
        "stride": "(2, 2)"
      }, 
      "inputs": [[0, 0, 0], [1, 0, 0]]
    }, 
    {
      "op": "null", 
      "name": "mobilenet0_batchnorm0_gamma", 
      "attrs": {
        "__dtype__": "0", 
        "__init__": "ones", 
        "__lr_mult__": "1.0", 
        "__shape__": "(8L,)", 
        "__storage_type__": "0", 
        "__wd_mult__": "1.0"
      }, 
      "inputs": []
    }, 
    {
      "op": "null", 
      "name": "mobilenet0_batchnorm0_beta", 
      "attrs": {
        "__dtype__": "0", 
        "__init__": "zeros", 
        "__lr_mult__": "1.0", 
        "__shape__": "(8L,)", 
        "__storage_type__": "0", 
        "__wd_mult__": "1.0"
      }, 
      "inputs": []
    }, 
    {
      "op": "null", 
      "name": "mobilenet0_batchnorm0_moving_mean", 
      "attrs": {
        "__dtype__": "0", 
        "__init__": "zeros", 
        "__lr_mult__": "1.0", 
        "__shape__": "(8L,)", 
        "__storage_type__": "0", 
        "__wd_mult__": "1.0"
      }, 
      "inputs": []
    }, 
    {
      "op": "null", 
      "name": "mobilenet0_batchnorm0_moving_var", 
      "attrs": {
        "__dtype__": "0", 
        "__init__": "ones", 
        "__lr_mult__": "1.0", 
        "__shape__": "(8L,)", 
        "__storage_type__": "0", 
        "__wd_mult__": "1.0"
      }, 
      "inputs": []
    }, 
    {
      "op": "BatchNorm", 
      "name": "mobilenet0_batchnorm0", 
      "attrs": {
        "axis": "1", 
        "eps": "1e-05", 
        "fix_gamma": "False", 
        "momentum": "0.9", 
        "use_global_stats": "False"
      }, 
      "inputs": [[2, 0, 0], [3, 0, 0], [4, 0, 0], [5, 0, 1], [6, 0, 1]]
    }, 
    {
      "op": "Activation", 
      "name": "mobilenet0_relu0", 
      "attrs": {"act_type": "relu"}, 
      "inputs": [[7, 0, 0]]
    }, 
    {
      "op": "null", 
      "name": "mobilenet0_conv1_weight", 
      "attrs": {
        "__dtype__": "0", 
        "__lr_mult__": "1.0", 
        "__shape__": "(8L, 1L, 3L, 3L)", 
        "__storage_type__": "0", 
        "__wd_mult__": "1.0"
      }, 
      "inputs": []
    }, 
    {
      "op": "Convolution", 
      "name": "mobilenet0_conv1", 
      "attrs": {
        "dilate": "(1, 1)", 
        "kernel": "(3, 3)", 
        "layout": "NCHW", 
        "no_bias": "True", 
        "num_filter": "8", 
        "num_group": "8", 
        "pad": "(1, 1)", 
        "stride": "(1, 1)"
      }, 
      "inputs": [[8, 0, 0], [9, 0, 0]]
    }, 
    {
      "op": "null", 
      "name": "mobilenet0_batchnorm1_gamma", 
      "attrs": {
        "__dtype__": "0", 
        "__init__": "ones", 
        "__lr_mult__": "1.0", 
        "__shape__": "(8L,)", 
        "__storage_type__": "0", 
        "__wd_mult__": "1.0"
      }, 
      "inputs": []
    }, 
    {
      "op": "null", 
      "name": "mobilenet0_batchnorm1_beta", 
      "attrs": {
        "__dtype__": "0", 
        "__init__": "zeros", 
        "__lr_mult__": "1.0", 
        "__shape__": "(8L,)", 
        "__storage_type__": "0", 
        "__wd_mult__": "1.0"
      }, 
      "inputs": []
    }, 
    {
      "op": "null", 
      "name": "mobilenet0_batchnorm1_moving_mean", 
      "attrs": {
        "__dtype__": "0", 
        "__init__": "zeros", 
        "__lr_mult__": "1.0", 
        "__shape__": "(8L,)", 
        "__storage_type__": "0", 
        "__wd_mult__": "1.0"
      }, 
      "inputs": []
    }, 
    {
      "op": "null", 
      "name": "mobilenet0_batchnorm1_moving_var", 
      "attrs": {
        "__dtype__": "0", 
        "__init__": "ones", 
        "__lr_mult__": "1.0", 
        "__shape__": "(8L,)", 
        "__storage_type__": "0", 
        "__wd_mult__": "1.0"
      }, 
      "inputs": []
    }, 
    {
      "op": "BatchNorm", 
      "name": "mobilenet0_batchnorm1", 
      "attrs": {
        "axis": "1", 
        "eps": "1e-05", 
        "fix_gamma": "False", 
        "momentum": "0.9", 
        "use_global_stats": "False"
      }, 
      "inputs": [[10, 0, 0], [11, 0, 0], [12, 0, 0], [13, 0, 1], [14, 0, 1]]
    }, 
    {
      "op": "Activation", 
      "name": "mobilenet0_relu1", 
      "attrs": {"act_type": "relu"}, 
      "inputs": [[15, 0, 0]]
    }, 
    {
      "op": "null", 
      "name": "mobilenet0_conv2_weight", 
      "attrs": {
        "__dtype__": "0", 
        "__lr_mult__": "1.0", 
        "__shape__": "(16L, 8L, 1L, 1L)", 
        "__storage_type__": "0", 
        "__wd_mult__": "1.0"
      }, 
      "inputs": []
    }, 
    {
      "op": "Convolution", 
      "name": "mobilenet0_conv2", 
      "attrs": {
        "dilate": "(1, 1)", 
        "kernel": "(1, 1)", 
        "layout": "NCHW", 
        "no_bias": "True", 
        "num_filter": "16", 
        "num_group": "1", 
        "pad": "(0, 0)", 
        "stride": "(1, 1)"
      }, 
      "inputs": [[16, 0, 0], [17, 0, 0]]
    }, 
    {
      "op": "null", 
      "name": "mobilenet0_batchnorm2_gamma", 
      "attrs": {
        "__dtype__": "0", 
        "__init__": "ones", 
        "__lr_mult__": "1.0", 
        "__shape__": "(16L,)", 
        "__storage_type__": "0", 
        "__wd_mult__": "1.0"
      }, 
      "inputs": []
    }, 
    {
      "op": "null", 
      "name": "mobilenet0_batchnorm2_beta", 
      "attrs": {
        "__dtype__": "0", 
        "__init__": "zeros", 
        "__lr_mult__": "1.0", 
        "__shape__": "(16L,)", 
        "__storage_type__": "0", 
        "__wd_mult__": "1.0"
      }, 
      "inputs": []
    }, 
    {
      "op": "null", 
      "name": "mobilenet0_batchnorm2_moving_mean", 
      "attrs": {
        "__dtype__": "0", 
        "__init__": "zeros", 
        "__lr_mult__": "1.0", 
        "__shape__": "(16L,)", 
        "__storage_type__": "0", 
        "__wd_mult__": "1.0"
      }, 
      "inputs": []
    }, 
    {
      "op": "null", 
      "name": "mobilenet0_batchnorm2_moving_var", 
      "attrs": {
        "__dtype__": "0", 
        "__init__": "ones", 
        "__lr_mult__": "1.0", 
        "__shape__": "(16L,)", 
        "__storage_type__": "0", 
        "__wd_mult__": "1.0"
      }, 
      "inputs": []
    }, 
    {
      "op": "BatchNorm", 
      "name": "mobilenet0_batchnorm2", 
      "attrs": {
        "axis": "1", 
        "eps": "1e-05", 
        "fix_gamma": "False", 
        "momentum": "0.9", 
        "use_global_stats": "False"
      }, 
      "inputs": [[18, 0, 0], [19, 0, 0], [20, 0, 0], [21, 0, 1], [22, 0, 1]]
    }, 
    {
      "op": "Activation", 
      "name": "mobilenet0_relu2", 
      "attrs": {"act_type": "relu"}, 
      "inputs": [[23, 0, 0]]
    }, 
    {
      "op": "null", 
      "name": "mobilenet0_conv3_weight", 
      "attrs": {
        "__dtype__": "0", 
        "__lr_mult__": "1.0", 
        "__shape__": "(16L, 1L, 3L, 3L)", 
        "__storage_type__": "0", 
        "__wd_mult__": "1.0"
      }, 
      "inputs": []
    }, 
    {
      "op": "Convolution", 
      "name": "mobilenet0_conv3", 
      "attrs": {
        "dilate": "(1, 1)", 
        "kernel": "(3, 3)", 
        "layout": "NCHW", 
        "no_bias": "True", 
        "num_filter": "16", 
        "num_group": "16", 
        "pad": "(1, 1)", 
        "stride": "(2, 2)"
      }, 
      "inputs": [[24, 0, 0], [25, 0, 0]]
    }, 
    {
      "op": "null", 
      "name": "mobilenet0_batchnorm3_gamma", 
      "attrs": {
        "__dtype__": "0", 
        "__init__": "ones", 
        "__lr_mult__": "1.0", 
        "__shape__": "(16L,)", 
        "__storage_type__": "0", 
        "__wd_mult__": "1.0"
      }, 
      "inputs": []
    }, 
    {
      "op": "null", 
      "name": "mobilenet0_batchnorm3_beta", 
      "attrs": {
        "__dtype__": "0", 
        "__init__": "zeros", 
        "__lr_mult__": "1.0", 
        "__shape__": "(16L,)", 
        "__storage_type__": "0", 
        "__wd_mult__": "1.0"
      }, 
      "inputs": []
    }, 
    {
      "op": "null", 
      "name": "mobilenet0_batchnorm3_moving_mean", 
      "attrs": {
        "__dtype__": "0", 
        "__init__": "zeros", 
        "__lr_mult__": "1.0", 
        "__shape__": "(16L,)", 
        "__storage_type__": "0", 
        "__wd_mult__": "1.0"
      }, 
      "inputs": []
    }, 
    {
      "op": "null", 
      "name": "mobilenet0_batchnorm3_moving_var", 
      "attrs": {
        "__dtype__": "0", 
        "__init__": "ones", 
        "__lr_mult__": "1.0", 
        "__shape__": "(16L,)", 
        "__storage_type__": "0", 
        "__wd_mult__": "1.0"
      }, 
      "inputs": []
    }, 
    {
      "op": "BatchNorm", 
      "name": "mobilenet0_batchnorm3", 
      "attrs": {
        "axis": "1", 
        "eps": "1e-05", 
        "fix_gamma": "False", 
        "momentum": "0.9", 
        "use_global_stats": "False"
      }, 
      "inputs": [[26, 0, 0], [27, 0, 0], [28, 0, 0], [29, 0, 1], [30, 0, 1]]
    }, 
    {
      "op": "Activation", 
      "name": "mobilenet0_relu3", 
      "attrs": {"act_type": "relu"}, 
      "inputs": [[31, 0, 0]]
    }, 
    {
      "op": "null", 
      "name": "mobilenet0_conv4_weight", 
      "attrs": {
        "__dtype__": "0", 
        "__lr_mult__": "1.0", 
        "__shape__": "(32L, 16L, 1L, 1L)", 
        "__storage_type__": "0", 
        "__wd_mult__": "1.0"
      }, 
      "inputs": []
    }, 
    {
      "op": "Convolution", 
      "name": "mobilenet0_conv4", 
      "attrs": {
        "dilate": "(1, 1)", 
        "kernel": "(1, 1)", 
        "layout": "NCHW", 
        "no_bias": "True", 
        "num_filter": "32", 
        "num_group": "1", 
        "pad": "(0, 0)", 
        "stride": "(1, 1)"
      }, 
      "inputs": [[32, 0, 0], [33, 0, 0]]
    }, 
    {
      "op": "null", 
      "name": "mobilenet0_batchnorm4_gamma", 
      "attrs": {
        "__dtype__": "0", 
        "__init__": "ones", 
        "__lr_mult__": "1.0", 
        "__shape__": "(32L,)", 
        "__storage_type__": "0", 
        "__wd_mult__": "1.0"
      }, 
      "inputs": []
    }, 
    {
      "op": "null", 
      "name": "mobilenet0_batchnorm4_beta", 
      "attrs": {
        "__dtype__": "0", 
        "__init__": "zeros", 
        "__lr_mult__": "1.0", 
        "__shape__": "(32L,)", 
        "__storage_type__": "0", 
        "__wd_mult__": "1.0"
      }, 
      "inputs": []
    }, 
    {
      "op": "null", 
      "name": "mobilenet0_batchnorm4_moving_mean", 
      "attrs": {
        "__dtype__": "0", 
        "__init__": "zeros", 
        "__lr_mult__": "1.0", 
        "__shape__": "(32L,)", 
        "__storage_type__": "0", 
        "__wd_mult__": "1.0"
      }, 
      "inputs": []
    }, 
    {
      "op": "null", 
      "name": "mobilenet0_batchnorm4_moving_var", 
      "attrs": {
        "__dtype__": "0", 
        "__init__": "ones", 
        "__lr_mult__": "1.0", 
        "__shape__": "(32L,)", 
        "__storage_type__": "0", 
        "__wd_mult__": "1.0"
      }, 
      "inputs": []
    }, 
    {
      "op": "BatchNorm", 
      "name": "mobilenet0_batchnorm4", 
      "attrs": {
        "axis": "1", 
        "eps": "1e-05", 
        "fix_gamma": "False", 
        "momentum": "0.9", 
        "use_global_stats": "False"
      }, 
      "inputs": [[34, 0, 0], [35, 0, 0], [36, 0, 0], [37, 0, 1], [38, 0, 1]]
    }, 
    {
      "op": "Activation", 
      "name": "mobilenet0_relu4", 
      "attrs": {"act_type": "relu"}, 
      "inputs": [[39, 0, 0]]
    }, 
    {
      "op": "null", 
      "name": "mobilenet0_conv5_weight", 
      "attrs": {
        "__dtype__": "0", 
        "__lr_mult__": "1.0", 
        "__shape__": "(32L, 1L, 3L, 3L)", 
        "__storage_type__": "0", 
        "__wd_mult__": "1.0"
      }, 
      "inputs": []
    }, 
    {
      "op": "Convolution", 
      "name": "mobilenet0_conv5", 
      "attrs": {
        "dilate": "(1, 1)", 
        "kernel": "(3, 3)", 
        "layout": "NCHW", 
        "no_bias": "True", 
        "num_filter": "32", 
        "num_group": "32", 
        "pad": "(1, 1)", 
        "stride": "(1, 1)"
      }, 
      "inputs": [[40, 0, 0], [41, 0, 0]]
    }, 
    {
      "op": "null", 
      "name": "mobilenet0_batchnorm5_gamma", 
      "attrs": {
        "__dtype__": "0", 
        "__init__": "ones", 
        "__lr_mult__": "1.0", 
        "__shape__": "(32L,)", 
        "__storage_type__": "0", 
        "__wd_mult__": "1.0"
      }, 
      "inputs": []
    }, 
    {
      "op": "null", 
      "name": "mobilenet0_batchnorm5_beta", 
      "attrs": {
        "__dtype__": "0", 
        "__init__": "zeros", 
        "__lr_mult__": "1.0", 
        "__shape__": "(32L,)", 
        "__storage_type__": "0", 
        "__wd_mult__": "1.0"
      }, 
      "inputs": []
    }, 
    {
      "op": "null", 
      "name": "mobilenet0_batchnorm5_moving_mean", 
      "attrs": {
        "__dtype__": "0", 
        "__init__": "zeros", 
        "__lr_mult__": "1.0", 
        "__shape__": "(32L,)", 
        "__storage_type__": "0", 
        "__wd_mult__": "1.0"
      }, 
      "inputs": []
    }, 
    {
      "op": "null", 
      "name": "mobilenet0_batchnorm5_moving_var", 
      "attrs": {
        "__dtype__": "0", 
        "__init__": "ones", 
        "__lr_mult__": "1.0", 
        "__shape__": "(32L,)", 
        "__storage_type__": "0", 
        "__wd_mult__": "1.0"
      }, 
      "inputs": []
    }, 
    {
      "op": "BatchNorm", 
      "name": "mobilenet0_batchnorm5", 
      "attrs": {
        "axis": "1", 
        "eps": "1e-05", 
        "fix_gamma": "False", 
        "momentum": "0.9", 
        "use_global_stats": "False"
      }, 
      "inputs": [[42, 0, 0], [43, 0, 0], [44, 0, 0], [45, 0, 1], [46, 0, 1]]
    }, 
    {
      "op": "Activation", 
      "name": "mobilenet0_relu5", 
      "attrs": {"act_type": "relu"}, 
      "inputs": [[47, 0, 0]]
    }, 
    {
      "op": "null", 
      "name": "mobilenet0_conv6_weight", 
      "attrs": {
        "__dtype__": "0", 
        "__lr_mult__": "1.0", 
        "__shape__": "(32L, 32L, 1L, 1L)", 
        "__storage_type__": "0", 
        "__wd_mult__": "1.0"
      }, 
      "inputs": []
    }, 
    {
      "op": "Convolution", 
      "name": "mobilenet0_conv6", 
      "attrs": {
        "dilate": "(1, 1)", 
        "kernel": "(1, 1)", 
        "layout": "NCHW", 
        "no_bias": "True", 
        "num_filter": "32", 
        "num_group": "1", 
        "pad": "(0, 0)", 
        "stride": "(1, 1)"
      }, 
      "inputs": [[48, 0, 0], [49, 0, 0]]
    }, 
    {
      "op": "null", 
      "name": "mobilenet0_batchnorm6_gamma", 
      "attrs": {
        "__dtype__": "0", 
        "__init__": "ones", 
        "__lr_mult__": "1.0", 
        "__shape__": "(32L,)", 
        "__storage_type__": "0", 
        "__wd_mult__": "1.0"
      }, 
      "inputs": []
    }, 
    {
      "op": "null", 
      "name": "mobilenet0_batchnorm6_beta", 
      "attrs": {
        "__dtype__": "0", 
        "__init__": "zeros", 
        "__lr_mult__": "1.0", 
        "__shape__": "(32L,)", 
        "__storage_type__": "0", 
        "__wd_mult__": "1.0"
      }, 
      "inputs": []
    }, 
    {
      "op": "null", 
      "name": "mobilenet0_batchnorm6_moving_mean", 
      "attrs": {
        "__dtype__": "0", 
        "__init__": "zeros", 
        "__lr_mult__": "1.0", 
        "__shape__": "(32L,)", 
        "__storage_type__": "0", 
        "__wd_mult__": "1.0"
      }, 
      "inputs": []
    }, 
    {
      "op": "null", 
      "name": "mobilenet0_batchnorm6_moving_var", 
      "attrs": {
        "__dtype__": "0", 
        "__init__": "ones", 
        "__lr_mult__": "1.0", 
        "__shape__": "(32L,)", 
        "__storage_type__": "0", 
        "__wd_mult__": "1.0"
      }, 
      "inputs": []
    }, 
    {
      "op": "BatchNorm", 
      "name": "mobilenet0_batchnorm6", 
      "attrs": {
        "axis": "1", 
        "eps": "1e-05", 
        "fix_gamma": "False", 
        "momentum": "0.9", 
        "use_global_stats": "False"
      }, 
      "inputs": [[50, 0, 0], [51, 0, 0], [52, 0, 0], [53, 0, 1], [54, 0, 1]]
    }, 
    {
      "op": "Activation", 
      "name": "mobilenet0_relu6", 
      "attrs": {"act_type": "relu"}, 
      "inputs": [[55, 0, 0]]
    }, 
    {
      "op": "null", 
      "name": "mobilenet0_conv7_weight", 
      "attrs": {
        "__dtype__": "0", 
        "__lr_mult__": "1.0", 
        "__shape__": "(32L, 1L, 3L, 3L)", 
        "__storage_type__": "0", 
        "__wd_mult__": "1.0"
      }, 
      "inputs": []
    }, 
    {
      "op": "Convolution", 
      "name": "mobilenet0_conv7", 
      "attrs": {
        "dilate": "(1, 1)", 
        "kernel": "(3, 3)", 
        "layout": "NCHW", 
        "no_bias": "True", 
        "num_filter": "32", 
        "num_group": "32", 
        "pad": "(1, 1)", 
        "stride": "(2, 2)"
      }, 
      "inputs": [[56, 0, 0], [57, 0, 0]]
    }, 
    {
      "op": "null", 
      "name": "mobilenet0_batchnorm7_gamma", 
      "attrs": {
        "__dtype__": "0", 
        "__init__": "ones", 
        "__lr_mult__": "1.0", 
        "__shape__": "(32L,)", 
        "__storage_type__": "0", 
        "__wd_mult__": "1.0"
      }, 
      "inputs": []
    }, 
    {
      "op": "null", 
      "name": "mobilenet0_batchnorm7_beta", 
      "attrs": {
        "__dtype__": "0", 
        "__init__": "zeros", 
        "__lr_mult__": "1.0", 
        "__shape__": "(32L,)", 
        "__storage_type__": "0", 
        "__wd_mult__": "1.0"
      }, 
      "inputs": []
    }, 
    {
      "op": "null", 
      "name": "mobilenet0_batchnorm7_moving_mean", 
      "attrs": {
        "__dtype__": "0", 
        "__init__": "zeros", 
        "__lr_mult__": "1.0", 
        "__shape__": "(32L,)", 
        "__storage_type__": "0", 
        "__wd_mult__": "1.0"
      }, 
      "inputs": []
    }, 
    {
      "op": "null", 
      "name": "mobilenet0_batchnorm7_moving_var", 
      "attrs": {
        "__dtype__": "0", 
        "__init__": "ones", 
        "__lr_mult__": "1.0", 
        "__shape__": "(32L,)", 
        "__storage_type__": "0", 
        "__wd_mult__": "1.0"
      }, 
      "inputs": []
    }, 
    {
      "op": "BatchNorm", 
      "name": "mobilenet0_batchnorm7", 
      "attrs": {
        "axis": "1", 
        "eps": "1e-05", 
        "fix_gamma": "False", 
        "momentum": "0.9", 
        "use_global_stats": "False"
      }, 
      "inputs": [[58, 0, 0], [59, 0, 0], [60, 0, 0], [61, 0, 1], [62, 0, 1]]
    }, 
    {
      "op": "Activation", 
      "name": "mobilenet0_relu7", 
      "attrs": {"act_type": "relu"}, 
      "inputs": [[63, 0, 0]]
    }, 
    {
      "op": "null", 
      "name": "mobilenet0_conv8_weight", 
      "attrs": {
        "__dtype__": "0", 
        "__lr_mult__": "1.0", 
        "__shape__": "(64L, 32L, 1L, 1L)", 
        "__storage_type__": "0", 
        "__wd_mult__": "1.0"
      }, 
      "inputs": []
    }, 
    {
      "op": "Convolution", 
      "name": "mobilenet0_conv8", 
      "attrs": {
        "dilate": "(1, 1)", 
        "kernel": "(1, 1)", 
        "layout": "NCHW", 
        "no_bias": "True", 
        "num_filter": "64", 
        "num_group": "1", 
        "pad": "(0, 0)", 
        "stride": "(1, 1)"
      }, 
      "inputs": [[64, 0, 0], [65, 0, 0]]
    }, 
    {
      "op": "null", 
      "name": "mobilenet0_batchnorm8_gamma", 
      "attrs": {
        "__dtype__": "0", 
        "__init__": "ones", 
        "__lr_mult__": "1.0", 
        "__shape__": "(64L,)", 
        "__storage_type__": "0", 
        "__wd_mult__": "1.0"
      }, 
      "inputs": []
    }, 
    {
      "op": "null", 
      "name": "mobilenet0_batchnorm8_beta", 
      "attrs": {
        "__dtype__": "0", 
        "__init__": "zeros", 
        "__lr_mult__": "1.0", 
        "__shape__": "(64L,)", 
        "__storage_type__": "0", 
        "__wd_mult__": "1.0"
      }, 
      "inputs": []
    }, 
    {
      "op": "null", 
      "name": "mobilenet0_batchnorm8_moving_mean", 
      "attrs": {
        "__dtype__": "0", 
        "__init__": "zeros", 
        "__lr_mult__": "1.0", 
        "__shape__": "(64L,)", 
        "__storage_type__": "0", 
        "__wd_mult__": "1.0"
      }, 
      "inputs": []
    }, 
    {
      "op": "null", 
      "name": "mobilenet0_batchnorm8_moving_var", 
      "attrs": {
        "__dtype__": "0", 
        "__init__": "ones", 
        "__lr_mult__": "1.0", 
        "__shape__": "(64L,)", 
        "__storage_type__": "0", 
        "__wd_mult__": "1.0"
      }, 
      "inputs": []
    }, 
    {
      "op": "BatchNorm", 
      "name": "mobilenet0_batchnorm8", 
      "attrs": {
        "axis": "1", 
        "eps": "1e-05", 
        "fix_gamma": "False", 
        "momentum": "0.9", 
        "use_global_stats": "False"
      }, 
      "inputs": [[66, 0, 0], [67, 0, 0], [68, 0, 0], [69, 0, 1], [70, 0, 1]]
    }, 
    {
      "op": "Activation", 
      "name": "mobilenet0_relu8", 
      "attrs": {"act_type": "relu"}, 
      "inputs": [[71, 0, 0]]
    }, 
    {
      "op": "null", 
      "name": "mobilenet0_conv9_weight", 
      "attrs": {
        "__dtype__": "0", 
        "__lr_mult__": "1.0", 
        "__shape__": "(64L, 1L, 3L, 3L)", 
        "__storage_type__": "0", 
        "__wd_mult__": "1.0"
      }, 
      "inputs": []
    }, 
    {
      "op": "Convolution", 
      "name": "mobilenet0_conv9", 
      "attrs": {
        "dilate": "(1, 1)", 
        "kernel": "(3, 3)", 
        "layout": "NCHW", 
        "no_bias": "True", 
        "num_filter": "64", 
        "num_group": "64", 
        "pad": "(1, 1)", 
        "stride": "(1, 1)"
      }, 
      "inputs": [[72, 0, 0], [73, 0, 0]]
    }, 
    {
      "op": "null", 
      "name": "mobilenet0_batchnorm9_gamma", 
      "attrs": {
        "__dtype__": "0", 
        "__init__": "ones", 
        "__lr_mult__": "1.0", 
        "__shape__": "(64L,)", 
        "__storage_type__": "0", 
        "__wd_mult__": "1.0"
      }, 
      "inputs": []
    }, 
    {
      "op": "null", 
      "name": "mobilenet0_batchnorm9_beta", 
      "attrs": {
        "__dtype__": "0", 
        "__init__": "zeros", 
        "__lr_mult__": "1.0", 
        "__shape__": "(64L,)", 
        "__storage_type__": "0", 
        "__wd_mult__": "1.0"
      }, 
      "inputs": []
    }, 
    {
      "op": "null", 
      "name": "mobilenet0_batchnorm9_moving_mean", 
      "attrs": {
        "__dtype__": "0", 
        "__init__": "zeros", 
        "__lr_mult__": "1.0", 
        "__shape__": "(64L,)", 
        "__storage_type__": "0", 
        "__wd_mult__": "1.0"
      }, 
      "inputs": []
    }, 
    {
      "op": "null", 
      "name": "mobilenet0_batchnorm9_moving_var", 
      "attrs": {
        "__dtype__": "0", 
        "__init__": "ones", 
        "__lr_mult__": "1.0", 
        "__shape__": "(64L,)", 
        "__storage_type__": "0", 
        "__wd_mult__": "1.0"
      }, 
      "inputs": []
    }, 
    {
      "op": "BatchNorm", 
      "name": "mobilenet0_batchnorm9", 
      "attrs": {
        "axis": "1", 
        "eps": "1e-05", 
        "fix_gamma": "False", 
        "momentum": "0.9", 
        "use_global_stats": "False"
      }, 
      "inputs": [[74, 0, 0], [75, 0, 0], [76, 0, 0], [77, 0, 1], [78, 0, 1]]
    }, 
    {
      "op": "Activation", 
      "name": "mobilenet0_relu9", 
      "attrs": {"act_type": "relu"}, 
      "inputs": [[79, 0, 0]]
    }, 
    {
      "op": "null", 
      "name": "mobilenet0_conv10_weight", 
      "attrs": {
        "__dtype__": "0", 
        "__lr_mult__": "1.0", 
        "__shape__": "(64L, 64L, 1L, 1L)", 
        "__storage_type__": "0", 
        "__wd_mult__": "1.0"
      }, 
      "inputs": []
    }, 
    {
      "op": "Convolution", 
      "name": "mobilenet0_conv10", 
      "attrs": {
        "dilate": "(1, 1)", 
        "kernel": "(1, 1)", 
        "layout": "NCHW", 
        "no_bias": "True", 
        "num_filter": "64", 
        "num_group": "1", 
        "pad": "(0, 0)", 
        "stride": "(1, 1)"
      }, 
      "inputs": [[80, 0, 0], [81, 0, 0]]
    }, 
    {
      "op": "null", 
      "name": "mobilenet0_batchnorm10_gamma", 
      "attrs": {
        "__dtype__": "0", 
        "__init__": "ones", 
        "__lr_mult__": "1.0", 
        "__shape__": "(64L,)", 
        "__storage_type__": "0", 
        "__wd_mult__": "1.0"
      }, 
      "inputs": []
    }, 
    {
      "op": "null", 
      "name": "mobilenet0_batchnorm10_beta", 
      "attrs": {
        "__dtype__": "0", 
        "__init__": "zeros", 
        "__lr_mult__": "1.0", 
        "__shape__": "(64L,)", 
        "__storage_type__": "0", 
        "__wd_mult__": "1.0"
      }, 
      "inputs": []
    }, 
    {
      "op": "null", 
      "name": "mobilenet0_batchnorm10_moving_mean", 
      "attrs": {
        "__dtype__": "0", 
        "__init__": "zeros", 
        "__lr_mult__": "1.0", 
        "__shape__": "(64L,)", 
        "__storage_type__": "0", 
        "__wd_mult__": "1.0"
      }, 
      "inputs": []
    }, 
    {
      "op": "null", 
      "name": "mobilenet0_batchnorm10_moving_var", 
      "attrs": {
        "__dtype__": "0", 
        "__init__": "ones", 
        "__lr_mult__": "1.0", 
        "__shape__": "(64L,)", 
        "__storage_type__": "0", 
        "__wd_mult__": "1.0"
      }, 
      "inputs": []
    }, 
    {
      "op": "BatchNorm", 
      "name": "mobilenet0_batchnorm10", 
      "attrs": {
        "axis": "1", 
        "eps": "1e-05", 
        "fix_gamma": "False", 
        "momentum": "0.9", 
        "use_global_stats": "False"
      }, 
      "inputs": [[82, 0, 0], [83, 0, 0], [84, 0, 0], [85, 0, 1], [86, 0, 1]]
    }, 
    {
      "op": "Activation", 
      "name": "mobilenet0_relu10", 
      "attrs": {"act_type": "relu"}, 
      "inputs": [[87, 0, 0]]
    }, 
    {
      "op": "null", 
      "name": "mobilenet0_conv11_weight", 
      "attrs": {
        "__dtype__": "0", 
        "__lr_mult__": "1.0", 
        "__shape__": "(64L, 1L, 3L, 3L)", 
        "__storage_type__": "0", 
        "__wd_mult__": "1.0"
      }, 
      "inputs": []
    }, 
    {
      "op": "Convolution", 
      "name": "mobilenet0_conv11", 
      "attrs": {
        "dilate": "(1, 1)", 
        "kernel": "(3, 3)", 
        "layout": "NCHW", 
        "no_bias": "True", 
        "num_filter": "64", 
        "num_group": "64", 
        "pad": "(1, 1)", 
        "stride": "(2, 2)"
      }, 
      "inputs": [[88, 0, 0], [89, 0, 0]]
    }, 
    {
      "op": "null", 
      "name": "mobilenet0_batchnorm11_gamma", 
      "attrs": {
        "__dtype__": "0", 
        "__init__": "ones", 
        "__lr_mult__": "1.0", 
        "__shape__": "(64L,)", 
        "__storage_type__": "0", 
        "__wd_mult__": "1.0"
      }, 
      "inputs": []
    }, 
    {
      "op": "null", 
      "name": "mobilenet0_batchnorm11_beta", 
      "attrs": {
        "__dtype__": "0", 
        "__init__": "zeros", 
        "__lr_mult__": "1.0", 
        "__shape__": "(64L,)", 
        "__storage_type__": "0", 
        "__wd_mult__": "1.0"
      }, 
      "inputs": []
    }, 
    {
      "op": "null", 
      "name": "mobilenet0_batchnorm11_moving_mean", 
      "attrs": {
        "__dtype__": "0", 
        "__init__": "zeros", 
        "__lr_mult__": "1.0", 
        "__shape__": "(64L,)", 
        "__storage_type__": "0", 
        "__wd_mult__": "1.0"
      }, 
      "inputs": []
    }, 
    {
      "op": "null", 
      "name": "mobilenet0_batchnorm11_moving_var", 
      "attrs": {
        "__dtype__": "0", 
        "__init__": "ones", 
        "__lr_mult__": "1.0", 
        "__shape__": "(64L,)", 
        "__storage_type__": "0", 
        "__wd_mult__": "1.0"
      }, 
      "inputs": []
    }, 
    {
      "op": "BatchNorm", 
      "name": "mobilenet0_batchnorm11", 
      "attrs": {
        "axis": "1", 
        "eps": "1e-05", 
        "fix_gamma": "False", 
        "momentum": "0.9", 
        "use_global_stats": "False"
      }, 
      "inputs": [[90, 0, 0], [91, 0, 0], [92, 0, 0], [93, 0, 1], [94, 0, 1]]
    }, 
    {
      "op": "Activation", 
      "name": "mobilenet0_relu11", 
      "attrs": {"act_type": "relu"}, 
      "inputs": [[95, 0, 0]]
    }, 
    {
      "op": "null", 
      "name": "mobilenet0_conv12_weight", 
      "attrs": {
        "__dtype__": "0", 
        "__lr_mult__": "1.0", 
        "__shape__": "(128L, 64L, 1L, 1L)", 
        "__storage_type__": "0", 
        "__wd_mult__": "1.0"
      }, 
      "inputs": []
    }, 
    {
      "op": "Convolution", 
      "name": "mobilenet0_conv12", 
      "attrs": {
        "dilate": "(1, 1)", 
        "kernel": "(1, 1)", 
        "layout": "NCHW", 
        "no_bias": "True", 
        "num_filter": "128", 
        "num_group": "1", 
        "pad": "(0, 0)", 
        "stride": "(1, 1)"
      }, 
      "inputs": [[96, 0, 0], [97, 0, 0]]
    }, 
    {
      "op": "null", 
      "name": "mobilenet0_batchnorm12_gamma", 
      "attrs": {
        "__dtype__": "0", 
        "__init__": "ones", 
        "__lr_mult__": "1.0", 
        "__shape__": "(128L,)", 
        "__storage_type__": "0", 
        "__wd_mult__": "1.0"
      }, 
      "inputs": []
    }, 
    {
      "op": "null", 
      "name": "mobilenet0_batchnorm12_beta", 
      "attrs": {
        "__dtype__": "0", 
        "__init__": "zeros", 
        "__lr_mult__": "1.0", 
        "__shape__": "(128L,)", 
        "__storage_type__": "0", 
        "__wd_mult__": "1.0"
      }, 
      "inputs": []
    }, 
    {
      "op": "null", 
      "name": "mobilenet0_batchnorm12_moving_mean", 
      "attrs": {
        "__dtype__": "0", 
        "__init__": "zeros", 
        "__lr_mult__": "1.0", 
        "__shape__": "(128L,)", 
        "__storage_type__": "0", 
        "__wd_mult__": "1.0"
      }, 
      "inputs": []
    }, 
    {
      "op": "null", 
      "name": "mobilenet0_batchnorm12_moving_var", 
      "attrs": {
        "__dtype__": "0", 
        "__init__": "ones", 
        "__lr_mult__": "1.0", 
        "__shape__": "(128L,)", 
        "__storage_type__": "0", 
        "__wd_mult__": "1.0"
      }, 
      "inputs": []
    }, 
    {
      "op": "BatchNorm", 
      "name": "mobilenet0_batchnorm12", 
      "attrs": {
        "axis": "1", 
        "eps": "1e-05", 
        "fix_gamma": "False", 
        "momentum": "0.9", 
        "use_global_stats": "False"
      }, 
      "inputs": [[98, 0, 0], [99, 0, 0], [100, 0, 0], [101, 0, 1], [102, 0, 1]]
    }, 
    {
      "op": "Activation", 
      "name": "mobilenet0_relu12", 
      "attrs": {"act_type": "relu"}, 
      "inputs": [[103, 0, 0]]
    }, 
    {
      "op": "null", 
      "name": "mobilenet0_conv13_weight", 
      "attrs": {
        "__dtype__": "0", 
        "__lr_mult__": "1.0", 
        "__shape__": "(128L, 1L, 3L, 3L)", 
        "__storage_type__": "0", 
        "__wd_mult__": "1.0"
      }, 
      "inputs": []
    }, 
    {
      "op": "Convolution", 
      "name": "mobilenet0_conv13", 
      "attrs": {
        "dilate": "(1, 1)", 
        "kernel": "(3, 3)", 
        "layout": "NCHW", 
        "no_bias": "True", 
        "num_filter": "128", 
        "num_group": "128", 
        "pad": "(1, 1)", 
        "stride": "(1, 1)"
      }, 
      "inputs": [[104, 0, 0], [105, 0, 0]]
    }, 
    {
      "op": "null", 
      "name": "mobilenet0_batchnorm13_gamma", 
      "attrs": {
        "__dtype__": "0", 
        "__init__": "ones", 
        "__lr_mult__": "1.0", 
        "__shape__": "(128L,)", 
        "__storage_type__": "0", 
        "__wd_mult__": "1.0"
      }, 
      "inputs": []
    }, 
    {
      "op": "null", 
      "name": "mobilenet0_batchnorm13_beta", 
      "attrs": {
        "__dtype__": "0", 
        "__init__": "zeros", 
        "__lr_mult__": "1.0", 
        "__shape__": "(128L,)", 
        "__storage_type__": "0", 
        "__wd_mult__": "1.0"
      }, 
      "inputs": []
    }, 
    {
      "op": "null", 
      "name": "mobilenet0_batchnorm13_moving_mean", 
      "attrs": {
        "__dtype__": "0", 
        "__init__": "zeros", 
        "__lr_mult__": "1.0", 
        "__shape__": "(128L,)", 
        "__storage_type__": "0", 
        "__wd_mult__": "1.0"
      }, 
      "inputs": []
    }, 
    {
      "op": "null", 
      "name": "mobilenet0_batchnorm13_moving_var", 
      "attrs": {
        "__dtype__": "0", 
        "__init__": "ones", 
        "__lr_mult__": "1.0", 
        "__shape__": "(128L,)", 
        "__storage_type__": "0", 
        "__wd_mult__": "1.0"
      }, 
      "inputs": []
    }, 
    {
      "op": "BatchNorm", 
      "name": "mobilenet0_batchnorm13", 
      "attrs": {
        "axis": "1", 
        "eps": "1e-05", 
        "fix_gamma": "False", 
        "momentum": "0.9", 
        "use_global_stats": "False"
      }, 
      "inputs": [[106, 0, 0], [107, 0, 0], [108, 0, 0], [109, 0, 1], [110, 0, 1]]
    }, 
    {
      "op": "Activation", 
      "name": "mobilenet0_relu13", 
      "attrs": {"act_type": "relu"}, 
      "inputs": [[111, 0, 0]]
    }, 
    {
      "op": "null", 
      "name": "mobilenet0_conv14_weight", 
      "attrs": {
        "__dtype__": "0", 
        "__lr_mult__": "1.0", 
        "__shape__": "(128L, 128L, 1L, 1L)", 
        "__storage_type__": "0", 
        "__wd_mult__": "1.0"
      }, 
      "inputs": []
    }, 
    {
      "op": "Convolution", 
      "name": "mobilenet0_conv14", 
      "attrs": {
        "dilate": "(1, 1)", 
        "kernel": "(1, 1)", 
        "layout": "NCHW", 
        "no_bias": "True", 
        "num_filter": "128", 
        "num_group": "1", 
        "pad": "(0, 0)", 
        "stride": "(1, 1)"
      }, 
      "inputs": [[112, 0, 0], [113, 0, 0]]
    }, 
    {
      "op": "null", 
      "name": "mobilenet0_batchnorm14_gamma", 
      "attrs": {
        "__dtype__": "0", 
        "__init__": "ones", 
        "__lr_mult__": "1.0", 
        "__shape__": "(128L,)", 
        "__storage_type__": "0", 
        "__wd_mult__": "1.0"
      }, 
      "inputs": []
    }, 
    {
      "op": "null", 
      "name": "mobilenet0_batchnorm14_beta", 
      "attrs": {
        "__dtype__": "0", 
        "__init__": "zeros", 
        "__lr_mult__": "1.0", 
        "__shape__": "(128L,)", 
        "__storage_type__": "0", 
        "__wd_mult__": "1.0"
      }, 
      "inputs": []
    }, 
    {
      "op": "null", 
      "name": "mobilenet0_batchnorm14_moving_mean", 
      "attrs": {
        "__dtype__": "0", 
        "__init__": "zeros", 
        "__lr_mult__": "1.0", 
        "__shape__": "(128L,)", 
        "__storage_type__": "0", 
        "__wd_mult__": "1.0"
      }, 
      "inputs": []
    }, 
    {
      "op": "null", 
      "name": "mobilenet0_batchnorm14_moving_var", 
      "attrs": {
        "__dtype__": "0", 
        "__init__": "ones", 
        "__lr_mult__": "1.0", 
        "__shape__": "(128L,)", 
        "__storage_type__": "0", 
        "__wd_mult__": "1.0"
      }, 
      "inputs": []
    }, 
    {
      "op": "BatchNorm", 
      "name": "mobilenet0_batchnorm14", 
      "attrs": {
        "axis": "1", 
        "eps": "1e-05", 
        "fix_gamma": "False", 
        "momentum": "0.9", 
        "use_global_stats": "False"
      }, 
      "inputs": [[114, 0, 0], [115, 0, 0], [116, 0, 0], [117, 0, 1], [118, 0, 1]]
    }, 
    {
      "op": "Activation", 
      "name": "mobilenet0_relu14", 
      "attrs": {"act_type": "relu"}, 
      "inputs": [[119, 0, 0]]
    }, 
    {
      "op": "null", 
      "name": "mobilenet0_conv15_weight", 
      "attrs": {
        "__dtype__": "0", 
        "__lr_mult__": "1.0", 
        "__shape__": "(128L, 1L, 3L, 3L)", 
        "__storage_type__": "0", 
        "__wd_mult__": "1.0"
      }, 
      "inputs": []
    }, 
    {
      "op": "Convolution", 
      "name": "mobilenet0_conv15", 
      "attrs": {
        "dilate": "(1, 1)", 
        "kernel": "(3, 3)", 
        "layout": "NCHW", 
        "no_bias": "True", 
        "num_filter": "128", 
        "num_group": "128", 
        "pad": "(1, 1)", 
        "stride": "(1, 1)"
      }, 
      "inputs": [[120, 0, 0], [121, 0, 0]]
    }, 
    {
      "op": "null", 
      "name": "mobilenet0_batchnorm15_gamma", 
      "attrs": {
        "__dtype__": "0", 
        "__init__": "ones", 
        "__lr_mult__": "1.0", 
        "__shape__": "(128L,)", 
        "__storage_type__": "0", 
        "__wd_mult__": "1.0"
      }, 
      "inputs": []
    }, 
    {
      "op": "null", 
      "name": "mobilenet0_batchnorm15_beta", 
      "attrs": {
        "__dtype__": "0", 
        "__init__": "zeros", 
        "__lr_mult__": "1.0", 
        "__shape__": "(128L,)", 
        "__storage_type__": "0", 
        "__wd_mult__": "1.0"
      }, 
      "inputs": []
    }, 
    {
      "op": "null", 
      "name": "mobilenet0_batchnorm15_moving_mean", 
      "attrs": {
        "__dtype__": "0", 
        "__init__": "zeros", 
        "__lr_mult__": "1.0", 
        "__shape__": "(128L,)", 
        "__storage_type__": "0", 
        "__wd_mult__": "1.0"
      }, 
      "inputs": []
    }, 
    {
      "op": "null", 
      "name": "mobilenet0_batchnorm15_moving_var", 
      "attrs": {
        "__dtype__": "0", 
        "__init__": "ones", 
        "__lr_mult__": "1.0", 
        "__shape__": "(128L,)", 
        "__storage_type__": "0", 
        "__wd_mult__": "1.0"
      }, 
      "inputs": []
    }, 
    {
      "op": "BatchNorm", 
      "name": "mobilenet0_batchnorm15", 
      "attrs": {
        "axis": "1", 
        "eps": "1e-05", 
        "fix_gamma": "False", 
        "momentum": "0.9", 
        "use_global_stats": "False"
      }, 
      "inputs": [[122, 0, 0], [123, 0, 0], [124, 0, 0], [125, 0, 1], [126, 0, 1]]
    }, 
    {
      "op": "Activation", 
      "name": "mobilenet0_relu15", 
      "attrs": {"act_type": "relu"}, 
      "inputs": [[127, 0, 0]]
    }, 
    {
      "op": "null", 
      "name": "mobilenet0_conv16_weight", 
      "attrs": {
        "__dtype__": "0", 
        "__lr_mult__": "1.0", 
        "__shape__": "(128L, 128L, 1L, 1L)", 
        "__storage_type__": "0", 
        "__wd_mult__": "1.0"
      }, 
      "inputs": []
    }, 
    {
      "op": "Convolution", 
      "name": "mobilenet0_conv16", 
      "attrs": {
        "dilate": "(1, 1)", 
        "kernel": "(1, 1)", 
        "layout": "NCHW", 
        "no_bias": "True", 
        "num_filter": "128", 
        "num_group": "1", 
        "pad": "(0, 0)", 
        "stride": "(1, 1)"
      }, 
      "inputs": [[128, 0, 0], [129, 0, 0]]
    }, 
    {
      "op": "null", 
      "name": "mobilenet0_batchnorm16_gamma", 
      "attrs": {
        "__dtype__": "0", 
        "__init__": "ones", 
        "__lr_mult__": "1.0", 
        "__shape__": "(128L,)", 
        "__storage_type__": "0", 
        "__wd_mult__": "1.0"
      }, 
      "inputs": []
    }, 
    {
      "op": "null", 
      "name": "mobilenet0_batchnorm16_beta", 
      "attrs": {
        "__dtype__": "0", 
        "__init__": "zeros", 
        "__lr_mult__": "1.0", 
        "__shape__": "(128L,)", 
        "__storage_type__": "0", 
        "__wd_mult__": "1.0"
      }, 
      "inputs": []
    }, 
    {
      "op": "null", 
      "name": "mobilenet0_batchnorm16_moving_mean", 
      "attrs": {
        "__dtype__": "0", 
        "__init__": "zeros", 
        "__lr_mult__": "1.0", 
        "__shape__": "(128L,)", 
        "__storage_type__": "0", 
        "__wd_mult__": "1.0"
      }, 
      "inputs": []
    }, 
    {
      "op": "null", 
      "name": "mobilenet0_batchnorm16_moving_var", 
      "attrs": {
        "__dtype__": "0", 
        "__init__": "ones", 
        "__lr_mult__": "1.0", 
        "__shape__": "(128L,)", 
        "__storage_type__": "0", 
        "__wd_mult__": "1.0"
      }, 
      "inputs": []
    }, 
    {
      "op": "BatchNorm", 
      "name": "mobilenet0_batchnorm16", 
      "attrs": {
        "axis": "1", 
        "eps": "1e-05", 
        "fix_gamma": "False", 
        "momentum": "0.9", 
        "use_global_stats": "False"
      }, 
      "inputs": [[130, 0, 0], [131, 0, 0], [132, 0, 0], [133, 0, 1], [134, 0, 1]]
    }, 
    {
      "op": "Activation", 
      "name": "mobilenet0_relu16", 
      "attrs": {"act_type": "relu"}, 
      "inputs": [[135, 0, 0]]
    }, 
    {
      "op": "null", 
      "name": "mobilenet0_conv17_weight", 
      "attrs": {
        "__dtype__": "0", 
        "__lr_mult__": "1.0", 
        "__shape__": "(128L, 1L, 3L, 3L)", 
        "__storage_type__": "0", 
        "__wd_mult__": "1.0"
      }, 
      "inputs": []
    }, 
    {
      "op": "Convolution", 
      "name": "mobilenet0_conv17", 
      "attrs": {
        "dilate": "(1, 1)", 
        "kernel": "(3, 3)", 
        "layout": "NCHW", 
        "no_bias": "True", 
        "num_filter": "128", 
        "num_group": "128", 
        "pad": "(1, 1)", 
        "stride": "(1, 1)"
      }, 
      "inputs": [[136, 0, 0], [137, 0, 0]]
    }, 
    {
      "op": "null", 
      "name": "mobilenet0_batchnorm17_gamma", 
      "attrs": {
        "__dtype__": "0", 
        "__init__": "ones", 
        "__lr_mult__": "1.0", 
        "__shape__": "(128L,)", 
        "__storage_type__": "0", 
        "__wd_mult__": "1.0"
      }, 
      "inputs": []
    }, 
    {
      "op": "null", 
      "name": "mobilenet0_batchnorm17_beta", 
      "attrs": {
        "__dtype__": "0", 
        "__init__": "zeros", 
        "__lr_mult__": "1.0", 
        "__shape__": "(128L,)", 
        "__storage_type__": "0", 
        "__wd_mult__": "1.0"
      }, 
      "inputs": []
    }, 
    {
      "op": "null", 
      "name": "mobilenet0_batchnorm17_moving_mean", 
      "attrs": {
        "__dtype__": "0", 
        "__init__": "zeros", 
        "__lr_mult__": "1.0", 
        "__shape__": "(128L,)", 
        "__storage_type__": "0", 
        "__wd_mult__": "1.0"
      }, 
      "inputs": []
    }, 
    {
      "op": "null", 
      "name": "mobilenet0_batchnorm17_moving_var", 
      "attrs": {
        "__dtype__": "0", 
        "__init__": "ones", 
        "__lr_mult__": "1.0", 
        "__shape__": "(128L,)", 
        "__storage_type__": "0", 
        "__wd_mult__": "1.0"
      }, 
      "inputs": []
    }, 
    {
      "op": "BatchNorm", 
      "name": "mobilenet0_batchnorm17", 
      "attrs": {
        "axis": "1", 
        "eps": "1e-05", 
        "fix_gamma": "False", 
        "momentum": "0.9", 
        "use_global_stats": "False"
      }, 
      "inputs": [[138, 0, 0], [139, 0, 0], [140, 0, 0], [141, 0, 1], [142, 0, 1]]
    }, 
    {
      "op": "Activation", 
      "name": "mobilenet0_relu17", 
      "attrs": {"act_type": "relu"}, 
      "inputs": [[143, 0, 0]]
    }, 
    {
      "op": "null", 
      "name": "mobilenet0_conv18_weight", 
      "attrs": {
        "__dtype__": "0", 
        "__lr_mult__": "1.0", 
        "__shape__": "(128L, 128L, 1L, 1L)", 
        "__storage_type__": "0", 
        "__wd_mult__": "1.0"
      }, 
      "inputs": []
    }, 
    {
      "op": "Convolution", 
      "name": "mobilenet0_conv18", 
      "attrs": {
        "dilate": "(1, 1)", 
        "kernel": "(1, 1)", 
        "layout": "NCHW", 
        "no_bias": "True", 
        "num_filter": "128", 
        "num_group": "1", 
        "pad": "(0, 0)", 
        "stride": "(1, 1)"
      }, 
      "inputs": [[144, 0, 0], [145, 0, 0]]
    }, 
    {
      "op": "null", 
      "name": "mobilenet0_batchnorm18_gamma", 
      "attrs": {
        "__dtype__": "0", 
        "__init__": "ones", 
        "__lr_mult__": "1.0", 
        "__shape__": "(128L,)", 
        "__storage_type__": "0", 
        "__wd_mult__": "1.0"
      }, 
      "inputs": []
    }, 
    {
      "op": "null", 
      "name": "mobilenet0_batchnorm18_beta", 
      "attrs": {
        "__dtype__": "0", 
        "__init__": "zeros", 
        "__lr_mult__": "1.0", 
        "__shape__": "(128L,)", 
        "__storage_type__": "0", 
        "__wd_mult__": "1.0"
      }, 
      "inputs": []
    }, 
    {
      "op": "null", 
      "name": "mobilenet0_batchnorm18_moving_mean", 
      "attrs": {
        "__dtype__": "0", 
        "__init__": "zeros", 
        "__lr_mult__": "1.0", 
        "__shape__": "(128L,)", 
        "__storage_type__": "0", 
        "__wd_mult__": "1.0"
      }, 
      "inputs": []
    }, 
    {
      "op": "null", 
      "name": "mobilenet0_batchnorm18_moving_var", 
      "attrs": {
        "__dtype__": "0", 
        "__init__": "ones", 
        "__lr_mult__": "1.0", 
        "__shape__": "(128L,)", 
        "__storage_type__": "0", 
        "__wd_mult__": "1.0"
      }, 
      "inputs": []
    }, 
    {
      "op": "BatchNorm", 
      "name": "mobilenet0_batchnorm18", 
      "attrs": {
        "axis": "1", 
        "eps": "1e-05", 
        "fix_gamma": "False", 
        "momentum": "0.9", 
        "use_global_stats": "False"
      }, 
      "inputs": [[146, 0, 0], [147, 0, 0], [148, 0, 0], [149, 0, 1], [150, 0, 1]]
    }, 
    {
      "op": "Activation", 
      "name": "mobilenet0_relu18", 
      "attrs": {"act_type": "relu"}, 
      "inputs": [[151, 0, 0]]
    }, 
    {
      "op": "null", 
      "name": "mobilenet0_conv19_weight", 
      "attrs": {
        "__dtype__": "0", 
        "__lr_mult__": "1.0", 
        "__shape__": "(128L, 1L, 3L, 3L)", 
        "__storage_type__": "0", 
        "__wd_mult__": "1.0"
      }, 
      "inputs": []
    }, 
    {
      "op": "Convolution", 
      "name": "mobilenet0_conv19", 
      "attrs": {
        "dilate": "(1, 1)", 
        "kernel": "(3, 3)", 
        "layout": "NCHW", 
        "no_bias": "True", 
        "num_filter": "128", 
        "num_group": "128", 
        "pad": "(1, 1)", 
        "stride": "(1, 1)"
      }, 
      "inputs": [[152, 0, 0], [153, 0, 0]]
    }, 
    {
      "op": "null", 
      "name": "mobilenet0_batchnorm19_gamma", 
      "attrs": {
        "__dtype__": "0", 
        "__init__": "ones", 
        "__lr_mult__": "1.0", 
        "__shape__": "(128L,)", 
        "__storage_type__": "0", 
        "__wd_mult__": "1.0"
      }, 
      "inputs": []
    }, 
    {
      "op": "null", 
      "name": "mobilenet0_batchnorm19_beta", 
      "attrs": {
        "__dtype__": "0", 
        "__init__": "zeros", 
        "__lr_mult__": "1.0", 
        "__shape__": "(128L,)", 
        "__storage_type__": "0", 
        "__wd_mult__": "1.0"
      }, 
      "inputs": []
    }, 
    {
      "op": "null", 
      "name": "mobilenet0_batchnorm19_moving_mean", 
      "attrs": {
        "__dtype__": "0", 
        "__init__": "zeros", 
        "__lr_mult__": "1.0", 
        "__shape__": "(128L,)", 
        "__storage_type__": "0", 
        "__wd_mult__": "1.0"
      }, 
      "inputs": []
    }, 
    {
      "op": "null", 
      "name": "mobilenet0_batchnorm19_moving_var", 
      "attrs": {
        "__dtype__": "0", 
        "__init__": "ones", 
        "__lr_mult__": "1.0", 
        "__shape__": "(128L,)", 
        "__storage_type__": "0", 
        "__wd_mult__": "1.0"
      }, 
      "inputs": []
    }, 
    {
      "op": "BatchNorm", 
      "name": "mobilenet0_batchnorm19", 
      "attrs": {
        "axis": "1", 
        "eps": "1e-05", 
        "fix_gamma": "False", 
        "momentum": "0.9", 
        "use_global_stats": "False"
      }, 
      "inputs": [[154, 0, 0], [155, 0, 0], [156, 0, 0], [157, 0, 1], [158, 0, 1]]
    }, 
    {
      "op": "Activation", 
      "name": "mobilenet0_relu19", 
      "attrs": {"act_type": "relu"}, 
      "inputs": [[159, 0, 0]]
    }, 
    {
      "op": "null", 
      "name": "mobilenet0_conv20_weight", 
      "attrs": {
        "__dtype__": "0", 
        "__lr_mult__": "1.0", 
        "__shape__": "(128L, 128L, 1L, 1L)", 
        "__storage_type__": "0", 
        "__wd_mult__": "1.0"
      }, 
      "inputs": []
    }, 
    {
      "op": "Convolution", 
      "name": "mobilenet0_conv20", 
      "attrs": {
        "dilate": "(1, 1)", 
        "kernel": "(1, 1)", 
        "layout": "NCHW", 
        "no_bias": "True", 
        "num_filter": "128", 
        "num_group": "1", 
        "pad": "(0, 0)", 
        "stride": "(1, 1)"
      }, 
      "inputs": [[160, 0, 0], [161, 0, 0]]
    }, 
    {
      "op": "null", 
      "name": "mobilenet0_batchnorm20_gamma", 
      "attrs": {
        "__dtype__": "0", 
        "__init__": "ones", 
        "__lr_mult__": "1.0", 
        "__shape__": "(128L,)", 
        "__storage_type__": "0", 
        "__wd_mult__": "1.0"
      }, 
      "inputs": []
    }, 
    {
      "op": "null", 
      "name": "mobilenet0_batchnorm20_beta", 
      "attrs": {
        "__dtype__": "0", 
        "__init__": "zeros", 
        "__lr_mult__": "1.0", 
        "__shape__": "(128L,)", 
        "__storage_type__": "0", 
        "__wd_mult__": "1.0"
      }, 
      "inputs": []
    }, 
    {
      "op": "null", 
      "name": "mobilenet0_batchnorm20_moving_mean", 
      "attrs": {
        "__dtype__": "0", 
        "__init__": "zeros", 
        "__lr_mult__": "1.0", 
        "__shape__": "(128L,)", 
        "__storage_type__": "0", 
        "__wd_mult__": "1.0"
      }, 
      "inputs": []
    }, 
    {
      "op": "null", 
      "name": "mobilenet0_batchnorm20_moving_var", 
      "attrs": {
        "__dtype__": "0", 
        "__init__": "ones", 
        "__lr_mult__": "1.0", 
        "__shape__": "(128L,)", 
        "__storage_type__": "0", 
        "__wd_mult__": "1.0"
      }, 
      "inputs": []
    }, 
    {
      "op": "BatchNorm", 
      "name": "mobilenet0_batchnorm20", 
      "attrs": {
        "axis": "1", 
        "eps": "1e-05", 
        "fix_gamma": "False", 
        "momentum": "0.9", 
        "use_global_stats": "False"
      }, 
      "inputs": [[162, 0, 0], [163, 0, 0], [164, 0, 0], [165, 0, 1], [166, 0, 1]]
    }, 
    {
      "op": "Activation", 
      "name": "mobilenet0_relu20", 
      "attrs": {"act_type": "relu"}, 
      "inputs": [[167, 0, 0]]
    }, 
    {
      "op": "null", 
      "name": "mobilenet0_conv21_weight", 
      "attrs": {
        "__dtype__": "0", 
        "__lr_mult__": "1.0", 
        "__shape__": "(128L, 1L, 3L, 3L)", 
        "__storage_type__": "0", 
        "__wd_mult__": "1.0"
      }, 
      "inputs": []
    }, 
    {
      "op": "Convolution", 
      "name": "mobilenet0_conv21", 
      "attrs": {
        "dilate": "(1, 1)", 
        "kernel": "(3, 3)", 
        "layout": "NCHW", 
        "no_bias": "True", 
        "num_filter": "128", 
        "num_group": "128", 
        "pad": "(1, 1)", 
        "stride": "(1, 1)"
      }, 
      "inputs": [[168, 0, 0], [169, 0, 0]]
    }, 
    {
      "op": "null", 
      "name": "mobilenet0_batchnorm21_gamma", 
      "attrs": {
        "__dtype__": "0", 
        "__init__": "ones", 
        "__lr_mult__": "1.0", 
        "__shape__": "(128L,)", 
        "__storage_type__": "0", 
        "__wd_mult__": "1.0"
      }, 
      "inputs": []
    }, 
    {
      "op": "null", 
      "name": "mobilenet0_batchnorm21_beta", 
      "attrs": {
        "__dtype__": "0", 
        "__init__": "zeros", 
        "__lr_mult__": "1.0", 
        "__shape__": "(128L,)", 
        "__storage_type__": "0", 
        "__wd_mult__": "1.0"
      }, 
      "inputs": []
    }, 
    {
      "op": "null", 
      "name": "mobilenet0_batchnorm21_moving_mean", 
      "attrs": {
        "__dtype__": "0", 
        "__init__": "zeros", 
        "__lr_mult__": "1.0", 
        "__shape__": "(128L,)", 
        "__storage_type__": "0", 
        "__wd_mult__": "1.0"
      }, 
      "inputs": []
    }, 
    {
      "op": "null", 
      "name": "mobilenet0_batchnorm21_moving_var", 
      "attrs": {
        "__dtype__": "0", 
        "__init__": "ones", 
        "__lr_mult__": "1.0", 
        "__shape__": "(128L,)", 
        "__storage_type__": "0", 
        "__wd_mult__": "1.0"
      }, 
      "inputs": []
    }, 
    {
      "op": "BatchNorm", 
      "name": "mobilenet0_batchnorm21", 
      "attrs": {
        "axis": "1", 
        "eps": "1e-05", 
        "fix_gamma": "False", 
        "momentum": "0.9", 
        "use_global_stats": "False"
      }, 
      "inputs": [[170, 0, 0], [171, 0, 0], [172, 0, 0], [173, 0, 1], [174, 0, 1]]
    }, 
    {
      "op": "Activation", 
      "name": "mobilenet0_relu21", 
      "attrs": {"act_type": "relu"}, 
      "inputs": [[175, 0, 0]]
    }, 
    {
      "op": "null", 
      "name": "mobilenet0_conv22_weight", 
      "attrs": {
        "__dtype__": "0", 
        "__lr_mult__": "1.0", 
        "__shape__": "(128L, 128L, 1L, 1L)", 
        "__storage_type__": "0", 
        "__wd_mult__": "1.0"
      }, 
      "inputs": []
    }, 
    {
      "op": "Convolution", 
      "name": "mobilenet0_conv22", 
      "attrs": {
        "dilate": "(1, 1)", 
        "kernel": "(1, 1)", 
        "layout": "NCHW", 
        "no_bias": "True", 
        "num_filter": "128", 
        "num_group": "1", 
        "pad": "(0, 0)", 
        "stride": "(1, 1)"
      }, 
      "inputs": [[176, 0, 0], [177, 0, 0]]
    }, 
    {
      "op": "null", 
      "name": "mobilenet0_batchnorm22_gamma", 
      "attrs": {
        "__dtype__": "0", 
        "__init__": "ones", 
        "__lr_mult__": "1.0", 
        "__shape__": "(128L,)", 
        "__storage_type__": "0", 
        "__wd_mult__": "1.0"
      }, 
      "inputs": []
    }, 
    {
      "op": "null", 
      "name": "mobilenet0_batchnorm22_beta", 
      "attrs": {
        "__dtype__": "0", 
        "__init__": "zeros", 
        "__lr_mult__": "1.0", 
        "__shape__": "(128L,)", 
        "__storage_type__": "0", 
        "__wd_mult__": "1.0"
      }, 
      "inputs": []
    }, 
    {
      "op": "null", 
      "name": "mobilenet0_batchnorm22_moving_mean", 
      "attrs": {
        "__dtype__": "0", 
        "__init__": "zeros", 
        "__lr_mult__": "1.0", 
        "__shape__": "(128L,)", 
        "__storage_type__": "0", 
        "__wd_mult__": "1.0"
      }, 
      "inputs": []
    }, 
    {
      "op": "null", 
      "name": "mobilenet0_batchnorm22_moving_var", 
      "attrs": {
        "__dtype__": "0", 
        "__init__": "ones", 
        "__lr_mult__": "1.0", 
        "__shape__": "(128L,)", 
        "__storage_type__": "0", 
        "__wd_mult__": "1.0"
      }, 
      "inputs": []
    }, 
    {
      "op": "BatchNorm", 
      "name": "mobilenet0_batchnorm22", 
      "attrs": {
        "axis": "1", 
        "eps": "1e-05", 
        "fix_gamma": "False", 
        "momentum": "0.9", 
        "use_global_stats": "False"
      }, 
      "inputs": [[178, 0, 0], [179, 0, 0], [180, 0, 0], [181, 0, 1], [182, 0, 1]]
    }, 
    {
      "op": "Activation", 
      "name": "mobilenet0_relu22", 
      "attrs": {"act_type": "relu"}, 
      "inputs": [[183, 0, 0]]
    }, 
    {
      "op": "null", 
      "name": "mobilenet0_conv23_weight", 
      "attrs": {
        "__dtype__": "0", 
        "__lr_mult__": "1.0", 
        "__shape__": "(128L, 1L, 3L, 3L)", 
        "__storage_type__": "0", 
        "__wd_mult__": "1.0"
      }, 
      "inputs": []
    }, 
    {
      "op": "Convolution", 
      "name": "mobilenet0_conv23", 
      "attrs": {
        "dilate": "(1, 1)", 
        "kernel": "(3, 3)", 
        "layout": "NCHW", 
        "no_bias": "True", 
        "num_filter": "128", 
        "num_group": "128", 
        "pad": "(1, 1)", 
        "stride": "(2, 2)"
      }, 
      "inputs": [[184, 0, 0], [185, 0, 0]]
    }, 
    {
      "op": "null", 
      "name": "mobilenet0_batchnorm23_gamma", 
      "attrs": {
        "__dtype__": "0", 
        "__init__": "ones", 
        "__lr_mult__": "1.0", 
        "__shape__": "(128L,)", 
        "__storage_type__": "0", 
        "__wd_mult__": "1.0"
      }, 
      "inputs": []
    }, 
    {
      "op": "null", 
      "name": "mobilenet0_batchnorm23_beta", 
      "attrs": {
        "__dtype__": "0", 
        "__init__": "zeros", 
        "__lr_mult__": "1.0", 
        "__shape__": "(128L,)", 
        "__storage_type__": "0", 
        "__wd_mult__": "1.0"
      }, 
      "inputs": []
    }, 
    {
      "op": "null", 
      "name": "mobilenet0_batchnorm23_moving_mean", 
      "attrs": {
        "__dtype__": "0", 
        "__init__": "zeros", 
        "__lr_mult__": "1.0", 
        "__shape__": "(128L,)", 
        "__storage_type__": "0", 
        "__wd_mult__": "1.0"
      }, 
      "inputs": []
    }, 
    {
      "op": "null", 
      "name": "mobilenet0_batchnorm23_moving_var", 
      "attrs": {
        "__dtype__": "0", 
        "__init__": "ones", 
        "__lr_mult__": "1.0", 
        "__shape__": "(128L,)", 
        "__storage_type__": "0", 
        "__wd_mult__": "1.0"
      }, 
      "inputs": []
    }, 
    {
      "op": "BatchNorm", 
      "name": "mobilenet0_batchnorm23", 
      "attrs": {
        "axis": "1", 
        "eps": "1e-05", 
        "fix_gamma": "False", 
        "momentum": "0.9", 
        "use_global_stats": "False"
      }, 
      "inputs": [[186, 0, 0], [187, 0, 0], [188, 0, 0], [189, 0, 1], [190, 0, 1]]
    }, 
    {
      "op": "Activation", 
      "name": "mobilenet0_relu23", 
      "attrs": {"act_type": "relu"}, 
      "inputs": [[191, 0, 0]]
    }, 
    {
      "op": "null", 
      "name": "mobilenet0_conv24_weight", 
      "attrs": {
        "__dtype__": "0", 
        "__lr_mult__": "1.0", 
        "__shape__": "(256L, 128L, 1L, 1L)", 
        "__storage_type__": "0", 
        "__wd_mult__": "1.0"
      }, 
      "inputs": []
    }, 
    {
      "op": "Convolution", 
      "name": "mobilenet0_conv24", 
      "attrs": {
        "dilate": "(1, 1)", 
        "kernel": "(1, 1)", 
        "layout": "NCHW", 
        "no_bias": "True", 
        "num_filter": "256", 
        "num_group": "1", 
        "pad": "(0, 0)", 
        "stride": "(1, 1)"
      }, 
      "inputs": [[192, 0, 0], [193, 0, 0]]
    }, 
    {
      "op": "null", 
      "name": "mobilenet0_batchnorm24_gamma", 
      "attrs": {
        "__dtype__": "0", 
        "__init__": "ones", 
        "__lr_mult__": "1.0", 
        "__shape__": "(256L,)", 
        "__storage_type__": "0", 
        "__wd_mult__": "1.0"
      }, 
      "inputs": []
    }, 
    {
      "op": "null", 
      "name": "mobilenet0_batchnorm24_beta", 
      "attrs": {
        "__dtype__": "0", 
        "__init__": "zeros", 
        "__lr_mult__": "1.0", 
        "__shape__": "(256L,)", 
        "__storage_type__": "0", 
        "__wd_mult__": "1.0"
      }, 
      "inputs": []
    }, 
    {
      "op": "null", 
      "name": "mobilenet0_batchnorm24_moving_mean", 
      "attrs": {
        "__dtype__": "0", 
        "__init__": "zeros", 
        "__lr_mult__": "1.0", 
        "__shape__": "(256L,)", 
        "__storage_type__": "0", 
        "__wd_mult__": "1.0"
      }, 
      "inputs": []
    }, 
    {
      "op": "null", 
      "name": "mobilenet0_batchnorm24_moving_var", 
      "attrs": {
        "__dtype__": "0", 
        "__init__": "ones", 
        "__lr_mult__": "1.0", 
        "__shape__": "(256L,)", 
        "__storage_type__": "0", 
        "__wd_mult__": "1.0"
      }, 
      "inputs": []
    }, 
    {
      "op": "BatchNorm", 
      "name": "mobilenet0_batchnorm24", 
      "attrs": {
        "axis": "1", 
        "eps": "1e-05", 
        "fix_gamma": "False", 
        "momentum": "0.9", 
        "use_global_stats": "False"
      }, 
      "inputs": [[194, 0, 0], [195, 0, 0], [196, 0, 0], [197, 0, 1], [198, 0, 1]]
    }, 
    {
      "op": "Activation", 
      "name": "mobilenet0_relu24", 
      "attrs": {"act_type": "relu"}, 
      "inputs": [[199, 0, 0]]
    }, 
    {
      "op": "null", 
      "name": "mobilenet0_conv25_weight", 
      "attrs": {
        "__dtype__": "0", 
        "__lr_mult__": "1.0", 
        "__shape__": "(256L, 1L, 3L, 3L)", 
        "__storage_type__": "0", 
        "__wd_mult__": "1.0"
      }, 
      "inputs": []
    }, 
    {
      "op": "Convolution", 
      "name": "mobilenet0_conv25", 
      "attrs": {
        "dilate": "(1, 1)", 
        "kernel": "(3, 3)", 
        "layout": "NCHW", 
        "no_bias": "True", 
        "num_filter": "256", 
        "num_group": "256", 
        "pad": "(1, 1)", 
        "stride": "(1, 1)"
      }, 
      "inputs": [[200, 0, 0], [201, 0, 0]]
    }, 
    {
      "op": "null", 
      "name": "mobilenet0_batchnorm25_gamma", 
      "attrs": {
        "__dtype__": "0", 
        "__init__": "ones", 
        "__lr_mult__": "1.0", 
        "__shape__": "(256L,)", 
        "__storage_type__": "0", 
        "__wd_mult__": "1.0"
      }, 
      "inputs": []
    }, 
    {
      "op": "null", 
      "name": "mobilenet0_batchnorm25_beta", 
      "attrs": {
        "__dtype__": "0", 
        "__init__": "zeros", 
        "__lr_mult__": "1.0", 
        "__shape__": "(256L,)", 
        "__storage_type__": "0", 
        "__wd_mult__": "1.0"
      }, 
      "inputs": []
    }, 
    {
      "op": "null", 
      "name": "mobilenet0_batchnorm25_moving_mean", 
      "attrs": {
        "__dtype__": "0", 
        "__init__": "zeros", 
        "__lr_mult__": "1.0", 
        "__shape__": "(256L,)", 
        "__storage_type__": "0", 
        "__wd_mult__": "1.0"
      }, 
      "inputs": []
    }, 
    {
      "op": "null", 
      "name": "mobilenet0_batchnorm25_moving_var", 
      "attrs": {
        "__dtype__": "0", 
        "__init__": "ones", 
        "__lr_mult__": "1.0", 
        "__shape__": "(256L,)", 
        "__storage_type__": "0", 
        "__wd_mult__": "1.0"
      }, 
      "inputs": []
    }, 
    {
      "op": "BatchNorm", 
      "name": "mobilenet0_batchnorm25", 
      "attrs": {
        "axis": "1", 
        "eps": "1e-05", 
        "fix_gamma": "False", 
        "momentum": "0.9", 
        "use_global_stats": "False"
      }, 
      "inputs": [[202, 0, 0], [203, 0, 0], [204, 0, 0], [205, 0, 1], [206, 0, 1]]
    }, 
    {
      "op": "Activation", 
      "name": "mobilenet0_relu25", 
      "attrs": {"act_type": "relu"}, 
      "inputs": [[207, 0, 0]]
    }, 
    {
      "op": "null", 
      "name": "mobilenet0_conv26_weight", 
      "attrs": {
        "__dtype__": "0", 
        "__lr_mult__": "1.0", 
        "__shape__": "(256L, 256L, 1L, 1L)", 
        "__storage_type__": "0", 
        "__wd_mult__": "1.0"
      }, 
      "inputs": []
    }, 
    {
      "op": "Convolution", 
      "name": "mobilenet0_conv26", 
      "attrs": {
        "dilate": "(1, 1)", 
        "kernel": "(1, 1)", 
        "layout": "NCHW", 
        "no_bias": "True", 
        "num_filter": "256", 
        "num_group": "1", 
        "pad": "(0, 0)", 
        "stride": "(1, 1)"
      }, 
      "inputs": [[208, 0, 0], [209, 0, 0]]
    }, 
    {
      "op": "null", 
      "name": "mobilenet0_batchnorm26_gamma", 
      "attrs": {
        "__dtype__": "0", 
        "__init__": "ones", 
        "__lr_mult__": "1.0", 
        "__shape__": "(256L,)", 
        "__storage_type__": "0", 
        "__wd_mult__": "1.0"
      }, 
      "inputs": []
    }, 
    {
      "op": "null", 
      "name": "mobilenet0_batchnorm26_beta", 
      "attrs": {
        "__dtype__": "0", 
        "__init__": "zeros", 
        "__lr_mult__": "1.0", 
        "__shape__": "(256L,)", 
        "__storage_type__": "0", 
        "__wd_mult__": "1.0"
      }, 
      "inputs": []
    }, 
    {
      "op": "null", 
      "name": "mobilenet0_batchnorm26_moving_mean", 
      "attrs": {
        "__dtype__": "0", 
        "__init__": "zeros", 
        "__lr_mult__": "1.0", 
        "__shape__": "(256L,)", 
        "__storage_type__": "0", 
        "__wd_mult__": "1.0"
      }, 
      "inputs": []
    }, 
    {
      "op": "null", 
      "name": "mobilenet0_batchnorm26_moving_var", 
      "attrs": {
        "__dtype__": "0", 
        "__init__": "ones", 
        "__lr_mult__": "1.0", 
        "__shape__": "(256L,)", 
        "__storage_type__": "0", 
        "__wd_mult__": "1.0"
      }, 
      "inputs": []
    }, 
    {
      "op": "BatchNorm", 
      "name": "mobilenet0_batchnorm26", 
      "attrs": {
        "axis": "1", 
        "eps": "1e-05", 
        "fix_gamma": "False", 
        "momentum": "0.9", 
        "use_global_stats": "False"
      }, 
      "inputs": [[210, 0, 0], [211, 0, 0], [212, 0, 0], [213, 0, 1], [214, 0, 1]]
    }, 
    {
      "op": "Activation", 
      "name": "mobilenet0_relu26", 
      "attrs": {"act_type": "relu"}, 
      "inputs": [[215, 0, 0]]
    }, 
    {
      "op": "null", 
      "name": "rf_c3_lateral_weight", 
      "attrs": {
        "__init__": "[\"normal\", {\"sigma\": 0.01}]", 
        "__lr_mult__": "1.0"
      }, 
      "inputs": []
    }, 
    {
      "op": "null", 
      "name": "rf_c3_lateral_bias", 
      "attrs": {
        "__init__": "[\"constant\", {\"value\": 0.0}]", 
        "__lr_mult__": "2.0", 
        "__wd_mult__": "1.0"
      }, 
      "inputs": []
    }, 
    {
      "op": "Convolution", 
      "name": "rf_c3_lateral", 
      "attrs": {
        "kernel": "(1, 1)", 
        "num_filter": "64", 
        "pad": "(0, 0)", 
        "stride": "(1, 1)"
      }, 
      "inputs": [[216, 0, 0], [217, 0, 0], [218, 0, 0]]
    }, 
    {
      "op": "null", 
      "name": "rf_c3_lateral_bn_gamma", 
      "attrs": {
        "eps": "2e-05", 
        "fix_gamma": "False", 
        "momentum": "0.9"
      }, 
      "inputs": []
    }, 
    {
      "op": "null", 
      "name": "rf_c3_lateral_bn_beta", 
      "attrs": {
        "eps": "2e-05", 
        "fix_gamma": "False", 
        "momentum": "0.9"
      }, 
      "inputs": []
    }, 
    {
      "op": "null", 
      "name": "rf_c3_lateral_bn_moving_mean", 
      "attrs": {
        "__init__": "[\"zero\", {}]", 
        "eps": "2e-05", 
        "fix_gamma": "False", 
        "momentum": "0.9"
      }, 
      "inputs": []
    }, 
    {
      "op": "null", 
      "name": "rf_c3_lateral_bn_moving_var", 
      "attrs": {
        "__init__": "[\"one\", {}]", 
        "eps": "2e-05", 
        "fix_gamma": "False", 
        "momentum": "0.9"
      }, 
      "inputs": []
    }, 
    {
      "op": "BatchNorm", 
      "name": "rf_c3_lateral_bn", 
      "attrs": {
        "eps": "2e-05", 
        "fix_gamma": "False", 
        "momentum": "0.9"
      }, 
      "inputs": [[219, 0, 0], [220, 0, 0], [221, 0, 0], [222, 0, 1], [223, 0, 1]]
    }, 
    {
      "op": "Activation", 
      "name": "rf_c3_lateral_relu", 
      "attrs": {"act_type": "relu"}, 
      "inputs": [[224, 0, 0]]
    }, 
    {
      "op": "null", 
      "name": "rf_c3_det_conv1_weight", 
      "attrs": {
        "__init__": "[\"normal\", {\"sigma\": 0.01}]", 
        "__lr_mult__": "1.0"
      }, 
      "inputs": []
    }, 
    {
      "op": "null", 
      "name": "rf_c3_det_conv1_bias", 
      "attrs": {
        "__init__": "[\"constant\", {\"value\": 0.0}]", 
        "__lr_mult__": "2.0", 
        "__wd_mult__": "0.0"
      }, 
      "inputs": []
    }, 
    {
      "op": "Convolution", 
      "name": "rf_c3_det_conv1", 
      "attrs": {
        "kernel": "(3, 3)", 
        "num_filter": "32", 
        "pad": "(1, 1)", 
        "stride": "(1, 1)"
      }, 
      "inputs": [[225, 0, 0], [226, 0, 0], [227, 0, 0]]
    }, 
    {
      "op": "null", 
      "name": "rf_c3_det_conv1_bn_gamma", 
      "attrs": {
        "eps": "2e-05", 
        "fix_gamma": "False", 
        "momentum": "0.9"
      }, 
      "inputs": []
    }, 
    {
      "op": "null", 
      "name": "rf_c3_det_conv1_bn_beta", 
      "attrs": {
        "eps": "2e-05", 
        "fix_gamma": "False", 
        "momentum": "0.9"
      }, 
      "inputs": []
    }, 
    {
      "op": "null", 
      "name": "rf_c3_det_conv1_bn_moving_mean", 
      "attrs": {
        "__init__": "[\"zero\", {}]", 
        "eps": "2e-05", 
        "fix_gamma": "False", 
        "momentum": "0.9"
      }, 
      "inputs": []
    }, 
    {
      "op": "null", 
      "name": "rf_c3_det_conv1_bn_moving_var", 
      "attrs": {
        "__init__": "[\"one\", {}]", 
        "eps": "2e-05", 
        "fix_gamma": "False", 
        "momentum": "0.9"
      }, 
      "inputs": []
    }, 
    {
      "op": "BatchNorm", 
      "name": "rf_c3_det_conv1_bn", 
      "attrs": {
        "eps": "2e-05", 
        "fix_gamma": "False", 
        "momentum": "0.9"
      }, 
      "inputs": [[228, 0, 0], [229, 0, 0], [230, 0, 0], [231, 0, 1], [232, 0, 1]]
    }, 
    {
      "op": "null", 
      "name": "rf_c3_det_context_conv1_weight", 
      "attrs": {
        "__init__": "[\"normal\", {\"sigma\": 0.01}]", 
        "__lr_mult__": "1.0"
      }, 
      "inputs": []
    }, 
    {
      "op": "null", 
      "name": "rf_c3_det_context_conv1_bias", 
      "attrs": {
        "__init__": "[\"constant\", {\"value\": 0.0}]", 
        "__lr_mult__": "2.0", 
        "__wd_mult__": "0.0"
      }, 
      "inputs": []
    }, 
    {
      "op": "Convolution", 
      "name": "rf_c3_det_context_conv1", 
      "attrs": {
        "kernel": "(3, 3)", 
        "num_filter": "16", 
        "pad": "(1, 1)", 
        "stride": "(1, 1)"
      }, 
      "inputs": [[225, 0, 0], [234, 0, 0], [235, 0, 0]]
    }, 
    {
      "op": "null", 
      "name": "rf_c3_det_context_conv1_bn_gamma", 
      "attrs": {
        "eps": "2e-05", 
        "fix_gamma": "False", 
        "momentum": "0.9"
      }, 
      "inputs": []
    }, 
    {
      "op": "null", 
      "name": "rf_c3_det_context_conv1_bn_beta", 
      "attrs": {
        "eps": "2e-05", 
        "fix_gamma": "False", 
        "momentum": "0.9"
      }, 
      "inputs": []
    }, 
    {
      "op": "null", 
      "name": "rf_c3_det_context_conv1_bn_moving_mean", 
      "attrs": {
        "__init__": "[\"zero\", {}]", 
        "eps": "2e-05", 
        "fix_gamma": "False", 
        "momentum": "0.9"
      }, 
      "inputs": []
    }, 
    {
      "op": "null", 
      "name": "rf_c3_det_context_conv1_bn_moving_var", 
      "attrs": {
        "__init__": "[\"one\", {}]", 
        "eps": "2e-05", 
        "fix_gamma": "False", 
        "momentum": "0.9"
      }, 
      "inputs": []
    }, 
    {
      "op": "BatchNorm", 
      "name": "rf_c3_det_context_conv1_bn", 
      "attrs": {
        "eps": "2e-05", 
        "fix_gamma": "False", 
        "momentum": "0.9"
      }, 
      "inputs": [[236, 0, 0], [237, 0, 0], [238, 0, 0], [239, 0, 1], [240, 0, 1]]
    }, 
    {
      "op": "Activation", 
      "name": "rf_c3_det_context_conv1_relu", 
      "attrs": {"act_type": "relu"}, 
      "inputs": [[241, 0, 0]]
    }, 
    {
      "op": "null", 
      "name": "rf_c3_det_context_conv2_weight", 
      "attrs": {
        "__init__": "[\"normal\", {\"sigma\": 0.01}]", 
        "__lr_mult__": "1.0"
      }, 
      "inputs": []
    }, 
    {
      "op": "null", 
      "name": "rf_c3_det_context_conv2_bias", 
      "attrs": {
        "__init__": "[\"constant\", {\"value\": 0.0}]", 
        "__lr_mult__": "2.0", 
        "__wd_mult__": "0.0"
      }, 
      "inputs": []
    }, 
    {
      "op": "Convolution", 
      "name": "rf_c3_det_context_conv2", 
      "attrs": {
        "kernel": "(3, 3)", 
        "num_filter": "16", 
        "pad": "(1, 1)", 
        "stride": "(1, 1)"
      }, 
      "inputs": [[242, 0, 0], [243, 0, 0], [244, 0, 0]]
    }, 
    {
      "op": "null", 
      "name": "rf_c3_det_context_conv2_bn_gamma", 
      "attrs": {
        "eps": "2e-05", 
        "fix_gamma": "False", 
        "momentum": "0.9"
      }, 
      "inputs": []
    }, 
    {
      "op": "null", 
      "name": "rf_c3_det_context_conv2_bn_beta", 
      "attrs": {
        "eps": "2e-05", 
        "fix_gamma": "False", 
        "momentum": "0.9"
      }, 
      "inputs": []
    }, 
    {
      "op": "null", 
      "name": "rf_c3_det_context_conv2_bn_moving_mean", 
      "attrs": {
        "__init__": "[\"zero\", {}]", 
        "eps": "2e-05", 
        "fix_gamma": "False", 
        "momentum": "0.9"
      }, 
      "inputs": []
    }, 
    {
      "op": "null", 
      "name": "rf_c3_det_context_conv2_bn_moving_var", 
      "attrs": {
        "__init__": "[\"one\", {}]", 
        "eps": "2e-05", 
        "fix_gamma": "False", 
        "momentum": "0.9"
      }, 
      "inputs": []
    }, 
    {
      "op": "BatchNorm", 
      "name": "rf_c3_det_context_conv2_bn", 
      "attrs": {
        "eps": "2e-05", 
        "fix_gamma": "False", 
        "momentum": "0.9"
      }, 
      "inputs": [[245, 0, 0], [246, 0, 0], [247, 0, 0], [248, 0, 1], [249, 0, 1]]
    }, 
    {
      "op": "null", 
      "name": "rf_c3_det_context_conv3_1_weight", 
      "attrs": {
        "__init__": "[\"normal\", {\"sigma\": 0.01}]", 
        "__lr_mult__": "1.0"
      }, 
      "inputs": []
    }, 
    {
      "op": "null", 
      "name": "rf_c3_det_context_conv3_1_bias", 
      "attrs": {
        "__init__": "[\"constant\", {\"value\": 0.0}]", 
        "__lr_mult__": "2.0", 
        "__wd_mult__": "0.0"
      }, 
      "inputs": []
    }, 
    {
      "op": "Convolution", 
      "name": "rf_c3_det_context_conv3_1", 
      "attrs": {
        "kernel": "(3, 3)", 
        "num_filter": "16", 
        "pad": "(1, 1)", 
        "stride": "(1, 1)"
      }, 
      "inputs": [[242, 0, 0], [251, 0, 0], [252, 0, 0]]
    }, 
    {
      "op": "null", 
      "name": "rf_c3_det_context_conv3_1_bn_gamma", 
      "attrs": {
        "eps": "2e-05", 
        "fix_gamma": "False", 
        "momentum": "0.9"
      }, 
      "inputs": []
    }, 
    {
      "op": "null", 
      "name": "rf_c3_det_context_conv3_1_bn_beta", 
      "attrs": {
        "eps": "2e-05", 
        "fix_gamma": "False", 
        "momentum": "0.9"
      }, 
      "inputs": []
    }, 
    {
      "op": "null", 
      "name": "rf_c3_det_context_conv3_1_bn_moving_mean", 
      "attrs": {
        "__init__": "[\"zero\", {}]", 
        "eps": "2e-05", 
        "fix_gamma": "False", 
        "momentum": "0.9"
      }, 
      "inputs": []
    }, 
    {
      "op": "null", 
      "name": "rf_c3_det_context_conv3_1_bn_moving_var", 
      "attrs": {
        "__init__": "[\"one\", {}]", 
        "eps": "2e-05", 
        "fix_gamma": "False", 
        "momentum": "0.9"
      }, 
      "inputs": []
    }, 
    {
      "op": "BatchNorm", 
      "name": "rf_c3_det_context_conv3_1_bn", 
      "attrs": {
        "eps": "2e-05", 
        "fix_gamma": "False", 
        "momentum": "0.9"
      }, 
      "inputs": [[253, 0, 0], [254, 0, 0], [255, 0, 0], [256, 0, 1], [257, 0, 1]]
    }, 
    {
      "op": "Activation", 
      "name": "rf_c3_det_context_conv3_1_relu", 
      "attrs": {"act_type": "relu"}, 
      "inputs": [[258, 0, 0]]
    }, 
    {
      "op": "null", 
      "name": "rf_c3_det_context_conv3_2_weight", 
      "attrs": {
        "__init__": "[\"normal\", {\"sigma\": 0.01}]", 
        "__lr_mult__": "1.0"
      }, 
      "inputs": []
    }, 
    {
      "op": "null", 
      "name": "rf_c3_det_context_conv3_2_bias", 
      "attrs": {
        "__init__": "[\"constant\", {\"value\": 0.0}]", 
        "__lr_mult__": "2.0", 
        "__wd_mult__": "0.0"
      }, 
      "inputs": []
    }, 
    {
      "op": "Convolution", 
      "name": "rf_c3_det_context_conv3_2", 
      "attrs": {
        "kernel": "(3, 3)", 
        "num_filter": "16", 
        "pad": "(1, 1)", 
        "stride": "(1, 1)"
      }, 
      "inputs": [[259, 0, 0], [260, 0, 0], [261, 0, 0]]
    }, 
    {
      "op": "null", 
      "name": "rf_c3_det_context_conv3_2_bn_gamma", 
      "attrs": {
        "eps": "2e-05", 
        "fix_gamma": "False", 
        "momentum": "0.9"
      }, 
      "inputs": []
    }, 
    {
      "op": "null", 
      "name": "rf_c3_det_context_conv3_2_bn_beta", 
      "attrs": {
        "eps": "2e-05", 
        "fix_gamma": "False", 
        "momentum": "0.9"
      }, 
      "inputs": []
    }, 
    {
      "op": "null", 
      "name": "rf_c3_det_context_conv3_2_bn_moving_mean", 
      "attrs": {
        "__init__": "[\"zero\", {}]", 
        "eps": "2e-05", 
        "fix_gamma": "False", 
        "momentum": "0.9"
      }, 
      "inputs": []
    }, 
    {
      "op": "null", 
      "name": "rf_c3_det_context_conv3_2_bn_moving_var", 
      "attrs": {
        "__init__": "[\"one\", {}]", 
        "eps": "2e-05", 
        "fix_gamma": "False", 
        "momentum": "0.9"
      }, 
      "inputs": []
    }, 
    {
      "op": "BatchNorm", 
      "name": "rf_c3_det_context_conv3_2_bn", 
      "attrs": {
        "eps": "2e-05", 
        "fix_gamma": "False", 
        "momentum": "0.9"
      }, 
      "inputs": [[262, 0, 0], [263, 0, 0], [264, 0, 0], [265, 0, 1], [266, 0, 1]]
    }, 
    {
      "op": "Concat", 
      "name": "rf_c3_det_concat", 
      "attrs": {
        "dim": "1", 
        "num_args": "3"
      }, 
      "inputs": [[233, 0, 0], [250, 0, 0], [267, 0, 0]]
    }, 
    {
      "op": "Activation", 
      "name": "rf_c3_det_concat_relu", 
      "attrs": {"act_type": "relu"}, 
      "inputs": [[268, 0, 0]]
    }, 
    {
      "op": "null", 
      "name": "face_rpn_cls_score_stride32_weight", 
      "attrs": {
        "__init__": "[\"normal\", {\"sigma\": 0.01}]", 
        "__lr_mult__": "1.0"
      }, 
      "inputs": []
    }, 
    {
      "op": "null", 
      "name": "face_rpn_cls_score_stride32_bias", 
      "attrs": {
        "__init__": "[\"constant\", {\"value\": 0.0}]", 
        "__lr_mult__": "2.0", 
        "__wd_mult__": "0.0"
      }, 
      "inputs": []
    }, 
    {
      "op": "Convolution", 
      "name": "face_rpn_cls_score_stride32", 
      "attrs": {
        "kernel": "(1, 1)", 
        "num_filter": "4", 
        "pad": "(0, 0)", 
        "stride": "(1, 1)"
      }, 
      "inputs": [[269, 0, 0], [270, 0, 0], [271, 0, 0]]
    }, 
    {
      "op": "Reshape", 
      "name": "face_rpn_cls_score_reshape_stride32", 
      "attrs": {"shape": "(0, 2, -1, 0)"}, 
      "inputs": [[272, 0, 0]]
    }, 
    {
      "op": "SoftmaxActivation", 
      "name": "face_rpn_cls_prob_stride32", 
      "attrs": {"mode": "channel"}, 
      "inputs": [[273, 0, 0]]
    }, 
    {
      "op": "Reshape", 
      "name": "face_rpn_cls_prob_reshape_stride32", 
      "attrs": {"shape": "(0, 4, -1, 0)"}, 
      "inputs": [[274, 0, 0]]
    }, 
    {
      "op": "null", 
      "name": "face_rpn_bbox_pred_stride32_weight", 
      "attrs": {
        "__init__": "[\"normal\", {\"sigma\": 0.01}]", 
        "__lr_mult__": "1.0"
      }, 
      "inputs": []
    }, 
    {
      "op": "null", 
      "name": "face_rpn_bbox_pred_stride32_bias", 
      "attrs": {
        "__init__": "[\"constant\", {\"value\": 0.0}]", 
        "__lr_mult__": "2.0", 
        "__wd_mult__": "0.0"
      }, 
      "inputs": []
    }, 
    {
      "op": "Convolution", 
      "name": "face_rpn_bbox_pred_stride32", 
      "attrs": {
        "kernel": "(1, 1)", 
        "num_filter": "8", 
        "pad": "(0, 0)", 
        "stride": "(1, 1)"
      }, 
      "inputs": [[269, 0, 0], [276, 0, 0], [277, 0, 0]]
    }, 
    {
      "op": "null", 
      "name": "face_rpn_landmark_pred_stride32_weight", 
      "attrs": {
        "__init__": "[\"normal\", {\"sigma\": 0.01}]", 
        "__lr_mult__": "1.0"
      }, 
      "inputs": []
    }, 
    {
      "op": "null", 
      "name": "face_rpn_landmark_pred_stride32_bias", 
      "attrs": {
        "__init__": "[\"constant\", {\"value\": 0.0}]", 
        "__lr_mult__": "2.0", 
        "__wd_mult__": "0.0"
      }, 
      "inputs": []
    }, 
    {
      "op": "Convolution", 
      "name": "face_rpn_landmark_pred_stride32", 
      "attrs": {
        "kernel": "(1, 1)", 
        "num_filter": "20", 
        "pad": "(0, 0)", 
        "stride": "(1, 1)"
      }, 
      "inputs": [[269, 0, 0], [279, 0, 0], [280, 0, 0]]
    }, 
    {
      "op": "null", 
      "name": "rf_c2_lateral_weight", 
      "attrs": {
        "__init__": "[\"normal\", {\"sigma\": 0.01}]", 
        "__lr_mult__": "1.0"
      }, 
      "inputs": []
    }, 
    {
      "op": "null", 
      "name": "rf_c2_lateral_bias", 
      "attrs": {
        "__init__": "[\"constant\", {\"value\": 0.0}]", 
        "__lr_mult__": "2.0", 
        "__wd_mult__": "1.0"
      }, 
      "inputs": []
    }, 
    {
      "op": "Convolution", 
      "name": "rf_c2_lateral", 
      "attrs": {
        "kernel": "(1, 1)", 
        "num_filter": "64", 
        "pad": "(0, 0)", 
        "stride": "(1, 1)"
      }, 
      "inputs": [[184, 0, 0], [282, 0, 0], [283, 0, 0]]
    }, 
    {
      "op": "null", 
      "name": "rf_c2_lateral_bn_gamma", 
      "attrs": {
        "eps": "2e-05", 
        "fix_gamma": "False", 
        "momentum": "0.9"
      }, 
      "inputs": []
    }, 
    {
      "op": "null", 
      "name": "rf_c2_lateral_bn_beta", 
      "attrs": {
        "eps": "2e-05", 
        "fix_gamma": "False", 
        "momentum": "0.9"
      }, 
      "inputs": []
    }, 
    {
      "op": "null", 
      "name": "rf_c2_lateral_bn_moving_mean", 
      "attrs": {
        "__init__": "[\"zero\", {}]", 
        "eps": "2e-05", 
        "fix_gamma": "False", 
        "momentum": "0.9"
      }, 
      "inputs": []
    }, 
    {
      "op": "null", 
      "name": "rf_c2_lateral_bn_moving_var", 
      "attrs": {
        "__init__": "[\"one\", {}]", 
        "eps": "2e-05", 
        "fix_gamma": "False", 
        "momentum": "0.9"
      }, 
      "inputs": []
    }, 
    {
      "op": "BatchNorm", 
      "name": "rf_c2_lateral_bn", 
      "attrs": {
        "eps": "2e-05", 
        "fix_gamma": "False", 
        "momentum": "0.9"
      }, 
      "inputs": [[284, 0, 0], [285, 0, 0], [286, 0, 0], [287, 0, 1], [288, 0, 1]]
    }, 
    {
      "op": "Activation", 
      "name": "rf_c2_lateral_relu", 
      "attrs": {"act_type": "relu"}, 
      "inputs": [[289, 0, 0]]
    }, 
    {
      "op": "UpSampling", 
      "name": "rf_c3_upsampling", 
      "attrs": {
        "num_args": "1", 
        "sample_type": "nearest", 
        "scale": "2", 
        "workspace": "512"
      }, 
      "inputs": [[225, 0, 0]]
    }, 
    {
      "op": "Crop", 
      "name": "crop0", 
      "attrs": {"num_args": "2"}, 
      "inputs": [[291, 0, 0], [290, 0, 0]]
    }, 
    {
      "op": "elemwise_add", 
      "name": "_plus0", 
      "inputs": [[290, 0, 0], [292, 0, 0]]
    }, 
    {
      "op": "null", 
      "name": "rf_c2_aggr_weight", 
      "attrs": {
        "__init__": "[\"normal\", {\"sigma\": 0.01}]", 
        "__lr_mult__": "1.0"
      }, 
      "inputs": []
    }, 
    {
      "op": "null", 
      "name": "rf_c2_aggr_bias", 
      "attrs": {
        "__init__": "[\"constant\", {\"value\": 0.0}]", 
        "__lr_mult__": "2.0", 
        "__wd_mult__": "1.0"
      }, 
      "inputs": []
    }, 
    {
      "op": "Convolution", 
      "name": "rf_c2_aggr", 
      "attrs": {
        "kernel": "(3, 3)", 
        "num_filter": "64", 
        "pad": "(1, 1)", 
        "stride": "(1, 1)"
      }, 
      "inputs": [[293, 0, 0], [294, 0, 0], [295, 0, 0]]
    }, 
    {
      "op": "null", 
      "name": "rf_c2_aggr_bn_gamma", 
      "attrs": {
        "eps": "2e-05", 
        "fix_gamma": "False", 
        "momentum": "0.9"
      }, 
      "inputs": []
    }, 
    {
      "op": "null", 
      "name": "rf_c2_aggr_bn_beta", 
      "attrs": {
        "eps": "2e-05", 
        "fix_gamma": "False", 
        "momentum": "0.9"
      }, 
      "inputs": []
    }, 
    {
      "op": "null", 
      "name": "rf_c2_aggr_bn_moving_mean", 
      "attrs": {
        "__init__": "[\"zero\", {}]", 
        "eps": "2e-05", 
        "fix_gamma": "False", 
        "momentum": "0.9"
      }, 
      "inputs": []
    }, 
    {
      "op": "null", 
      "name": "rf_c2_aggr_bn_moving_var", 
      "attrs": {
        "__init__": "[\"one\", {}]", 
        "eps": "2e-05", 
        "fix_gamma": "False", 
        "momentum": "0.9"
      }, 
      "inputs": []
    }, 
    {
      "op": "BatchNorm", 
      "name": "rf_c2_aggr_bn", 
      "attrs": {
        "eps": "2e-05", 
        "fix_gamma": "False", 
        "momentum": "0.9"
      }, 
      "inputs": [[296, 0, 0], [297, 0, 0], [298, 0, 0], [299, 0, 1], [300, 0, 1]]
    }, 
    {
      "op": "Activation", 
      "name": "rf_c2_aggr_relu", 
      "attrs": {"act_type": "relu"}, 
      "inputs": [[301, 0, 0]]
    }, 
    {
      "op": "null", 
      "name": "rf_c2_det_conv1_weight", 
      "attrs": {
        "__init__": "[\"normal\", {\"sigma\": 0.01}]", 
        "__lr_mult__": "1.0"
      }, 
      "inputs": []
    }, 
    {
      "op": "null", 
      "name": "rf_c2_det_conv1_bias", 
      "attrs": {
        "__init__": "[\"constant\", {\"value\": 0.0}]", 
        "__lr_mult__": "2.0", 
        "__wd_mult__": "0.0"
      }, 
      "inputs": []
    }, 
    {
      "op": "Convolution", 
      "name": "rf_c2_det_conv1", 
      "attrs": {
        "kernel": "(3, 3)", 
        "num_filter": "32", 
        "pad": "(1, 1)", 
        "stride": "(1, 1)"
      }, 
      "inputs": [[302, 0, 0], [303, 0, 0], [304, 0, 0]]
    }, 
    {
      "op": "null", 
      "name": "rf_c2_det_conv1_bn_gamma", 
      "attrs": {
        "eps": "2e-05", 
        "fix_gamma": "False", 
        "momentum": "0.9"
      }, 
      "inputs": []
    }, 
    {
      "op": "null", 
      "name": "rf_c2_det_conv1_bn_beta", 
      "attrs": {
        "eps": "2e-05", 
        "fix_gamma": "False", 
        "momentum": "0.9"
      }, 
      "inputs": []
    }, 
    {
      "op": "null", 
      "name": "rf_c2_det_conv1_bn_moving_mean", 
      "attrs": {
        "__init__": "[\"zero\", {}]", 
        "eps": "2e-05", 
        "fix_gamma": "False", 
        "momentum": "0.9"
      }, 
      "inputs": []
    }, 
    {
      "op": "null", 
      "name": "rf_c2_det_conv1_bn_moving_var", 
      "attrs": {
        "__init__": "[\"one\", {}]", 
        "eps": "2e-05", 
        "fix_gamma": "False", 
        "momentum": "0.9"
      }, 
      "inputs": []
    }, 
    {
      "op": "BatchNorm", 
      "name": "rf_c2_det_conv1_bn", 
      "attrs": {
        "eps": "2e-05", 
        "fix_gamma": "False", 
        "momentum": "0.9"
      }, 
      "inputs": [[305, 0, 0], [306, 0, 0], [307, 0, 0], [308, 0, 1], [309, 0, 1]]
    }, 
    {
      "op": "null", 
      "name": "rf_c2_det_context_conv1_weight", 
      "attrs": {
        "__init__": "[\"normal\", {\"sigma\": 0.01}]", 
        "__lr_mult__": "1.0"
      }, 
      "inputs": []
    }, 
    {
      "op": "null", 
      "name": "rf_c2_det_context_conv1_bias", 
      "attrs": {
        "__init__": "[\"constant\", {\"value\": 0.0}]", 
        "__lr_mult__": "2.0", 
        "__wd_mult__": "0.0"
      }, 
      "inputs": []
    }, 
    {
      "op": "Convolution", 
      "name": "rf_c2_det_context_conv1", 
      "attrs": {
        "kernel": "(3, 3)", 
        "num_filter": "16", 
        "pad": "(1, 1)", 
        "stride": "(1, 1)"
      }, 
      "inputs": [[302, 0, 0], [311, 0, 0], [312, 0, 0]]
    }, 
    {
      "op": "null", 
      "name": "rf_c2_det_context_conv1_bn_gamma", 
      "attrs": {
        "eps": "2e-05", 
        "fix_gamma": "False", 
        "momentum": "0.9"
      }, 
      "inputs": []
    }, 
    {
      "op": "null", 
      "name": "rf_c2_det_context_conv1_bn_beta", 
      "attrs": {
        "eps": "2e-05", 
        "fix_gamma": "False", 
        "momentum": "0.9"
      }, 
      "inputs": []
    }, 
    {
      "op": "null", 
      "name": "rf_c2_det_context_conv1_bn_moving_mean", 
      "attrs": {
        "__init__": "[\"zero\", {}]", 
        "eps": "2e-05", 
        "fix_gamma": "False", 
        "momentum": "0.9"
      }, 
      "inputs": []
    }, 
    {
      "op": "null", 
      "name": "rf_c2_det_context_conv1_bn_moving_var", 
      "attrs": {
        "__init__": "[\"one\", {}]", 
        "eps": "2e-05", 
        "fix_gamma": "False", 
        "momentum": "0.9"
      }, 
      "inputs": []
    }, 
    {
      "op": "BatchNorm", 
      "name": "rf_c2_det_context_conv1_bn", 
      "attrs": {
        "eps": "2e-05", 
        "fix_gamma": "False", 
        "momentum": "0.9"
      }, 
      "inputs": [[313, 0, 0], [314, 0, 0], [315, 0, 0], [316, 0, 1], [317, 0, 1]]
    }, 
    {
      "op": "Activation", 
      "name": "rf_c2_det_context_conv1_relu", 
      "attrs": {"act_type": "relu"}, 
      "inputs": [[318, 0, 0]]
    }, 
    {
      "op": "null", 
      "name": "rf_c2_det_context_conv2_weight", 
      "attrs": {
        "__init__": "[\"normal\", {\"sigma\": 0.01}]", 
        "__lr_mult__": "1.0"
      }, 
      "inputs": []
    }, 
    {
      "op": "null", 
      "name": "rf_c2_det_context_conv2_bias", 
      "attrs": {
        "__init__": "[\"constant\", {\"value\": 0.0}]", 
        "__lr_mult__": "2.0", 
        "__wd_mult__": "0.0"
      }, 
      "inputs": []
    }, 
    {
      "op": "Convolution", 
      "name": "rf_c2_det_context_conv2", 
      "attrs": {
        "kernel": "(3, 3)", 
        "num_filter": "16", 
        "pad": "(1, 1)", 
        "stride": "(1, 1)"
      }, 
      "inputs": [[319, 0, 0], [320, 0, 0], [321, 0, 0]]
    }, 
    {
      "op": "null", 
      "name": "rf_c2_det_context_conv2_bn_gamma", 
      "attrs": {
        "eps": "2e-05", 
        "fix_gamma": "False", 
        "momentum": "0.9"
      }, 
      "inputs": []
    }, 
    {
      "op": "null", 
      "name": "rf_c2_det_context_conv2_bn_beta", 
      "attrs": {
        "eps": "2e-05", 
        "fix_gamma": "False", 
        "momentum": "0.9"
      }, 
      "inputs": []
    }, 
    {
      "op": "null", 
      "name": "rf_c2_det_context_conv2_bn_moving_mean", 
      "attrs": {
        "__init__": "[\"zero\", {}]", 
        "eps": "2e-05", 
        "fix_gamma": "False", 
        "momentum": "0.9"
      }, 
      "inputs": []
    }, 
    {
      "op": "null", 
      "name": "rf_c2_det_context_conv2_bn_moving_var", 
      "attrs": {
        "__init__": "[\"one\", {}]", 
        "eps": "2e-05", 
        "fix_gamma": "False", 
        "momentum": "0.9"
      }, 
      "inputs": []
    }, 
    {
      "op": "BatchNorm", 
      "name": "rf_c2_det_context_conv2_bn", 
      "attrs": {
        "eps": "2e-05", 
        "fix_gamma": "False", 
        "momentum": "0.9"
      }, 
      "inputs": [[322, 0, 0], [323, 0, 0], [324, 0, 0], [325, 0, 1], [326, 0, 1]]
    }, 
    {
      "op": "null", 
      "name": "rf_c2_det_context_conv3_1_weight", 
      "attrs": {
        "__init__": "[\"normal\", {\"sigma\": 0.01}]", 
        "__lr_mult__": "1.0"
      }, 
      "inputs": []
    }, 
    {
      "op": "null", 
      "name": "rf_c2_det_context_conv3_1_bias", 
      "attrs": {
        "__init__": "[\"constant\", {\"value\": 0.0}]", 
        "__lr_mult__": "2.0", 
        "__wd_mult__": "0.0"
      }, 
      "inputs": []
    }, 
    {
      "op": "Convolution", 
      "name": "rf_c2_det_context_conv3_1", 
      "attrs": {
        "kernel": "(3, 3)", 
        "num_filter": "16", 
        "pad": "(1, 1)", 
        "stride": "(1, 1)"
      }, 
      "inputs": [[319, 0, 0], [328, 0, 0], [329, 0, 0]]
    }, 
    {
      "op": "null", 
      "name": "rf_c2_det_context_conv3_1_bn_gamma", 
      "attrs": {
        "eps": "2e-05", 
        "fix_gamma": "False", 
        "momentum": "0.9"
      }, 
      "inputs": []
    }, 
    {
      "op": "null", 
      "name": "rf_c2_det_context_conv3_1_bn_beta", 
      "attrs": {
        "eps": "2e-05", 
        "fix_gamma": "False", 
        "momentum": "0.9"
      }, 
      "inputs": []
    }, 
    {
      "op": "null", 
      "name": "rf_c2_det_context_conv3_1_bn_moving_mean", 
      "attrs": {
        "__init__": "[\"zero\", {}]", 
        "eps": "2e-05", 
        "fix_gamma": "False", 
        "momentum": "0.9"
      }, 
      "inputs": []
    }, 
    {
      "op": "null", 
      "name": "rf_c2_det_context_conv3_1_bn_moving_var", 
      "attrs": {
        "__init__": "[\"one\", {}]", 
        "eps": "2e-05", 
        "fix_gamma": "False", 
        "momentum": "0.9"
      }, 
      "inputs": []
    }, 
    {
      "op": "BatchNorm", 
      "name": "rf_c2_det_context_conv3_1_bn", 
      "attrs": {
        "eps": "2e-05", 
        "fix_gamma": "False", 
        "momentum": "0.9"
      }, 
      "inputs": [[330, 0, 0], [331, 0, 0], [332, 0, 0], [333, 0, 1], [334, 0, 1]]
    }, 
    {
      "op": "Activation", 
      "name": "rf_c2_det_context_conv3_1_relu", 
      "attrs": {"act_type": "relu"}, 
      "inputs": [[335, 0, 0]]
    }, 
    {
      "op": "null", 
      "name": "rf_c2_det_context_conv3_2_weight", 
      "attrs": {
        "__init__": "[\"normal\", {\"sigma\": 0.01}]", 
        "__lr_mult__": "1.0"
      }, 
      "inputs": []
    }, 
    {
      "op": "null", 
      "name": "rf_c2_det_context_conv3_2_bias", 
      "attrs": {
        "__init__": "[\"constant\", {\"value\": 0.0}]", 
        "__lr_mult__": "2.0", 
        "__wd_mult__": "0.0"
      }, 
      "inputs": []
    }, 
    {
      "op": "Convolution", 
      "name": "rf_c2_det_context_conv3_2", 
      "attrs": {
        "kernel": "(3, 3)", 
        "num_filter": "16", 
        "pad": "(1, 1)", 
        "stride": "(1, 1)"
      }, 
      "inputs": [[336, 0, 0], [337, 0, 0], [338, 0, 0]]
    }, 
    {
      "op": "null", 
      "name": "rf_c2_det_context_conv3_2_bn_gamma", 
      "attrs": {
        "eps": "2e-05", 
        "fix_gamma": "False", 
        "momentum": "0.9"
      }, 
      "inputs": []
    }, 
    {
      "op": "null", 
      "name": "rf_c2_det_context_conv3_2_bn_beta", 
      "attrs": {
        "eps": "2e-05", 
        "fix_gamma": "False", 
        "momentum": "0.9"
      }, 
      "inputs": []
    }, 
    {
      "op": "null", 
      "name": "rf_c2_det_context_conv3_2_bn_moving_mean", 
      "attrs": {
        "__init__": "[\"zero\", {}]", 
        "eps": "2e-05", 
        "fix_gamma": "False", 
        "momentum": "0.9"
      }, 
      "inputs": []
    }, 
    {
      "op": "null", 
      "name": "rf_c2_det_context_conv3_2_bn_moving_var", 
      "attrs": {
        "__init__": "[\"one\", {}]", 
        "eps": "2e-05", 
        "fix_gamma": "False", 
        "momentum": "0.9"
      }, 
      "inputs": []
    }, 
    {
      "op": "BatchNorm", 
      "name": "rf_c2_det_context_conv3_2_bn", 
      "attrs": {
        "eps": "2e-05", 
        "fix_gamma": "False", 
        "momentum": "0.9"
      }, 
      "inputs": [[339, 0, 0], [340, 0, 0], [341, 0, 0], [342, 0, 1], [343, 0, 1]]
    }, 
    {
      "op": "Concat", 
      "name": "rf_c2_det_concat", 
      "attrs": {
        "dim": "1", 
        "num_args": "3"
      }, 
      "inputs": [[310, 0, 0], [327, 0, 0], [344, 0, 0]]
    }, 
    {
      "op": "Activation", 
      "name": "rf_c2_det_concat_relu", 
      "attrs": {"act_type": "relu"}, 
      "inputs": [[345, 0, 0]]
    }, 
    {
      "op": "null", 
      "name": "face_rpn_cls_score_stride16_weight", 
      "attrs": {
        "__init__": "[\"normal\", {\"sigma\": 0.01}]", 
        "__lr_mult__": "1.0"
      }, 
      "inputs": []
    }, 
    {
      "op": "null", 
      "name": "face_rpn_cls_score_stride16_bias", 
      "attrs": {
        "__init__": "[\"constant\", {\"value\": 0.0}]", 
        "__lr_mult__": "2.0", 
        "__wd_mult__": "0.0"
      }, 
      "inputs": []
    }, 
    {
      "op": "Convolution", 
      "name": "face_rpn_cls_score_stride16", 
      "attrs": {
        "kernel": "(1, 1)", 
        "num_filter": "4", 
        "pad": "(0, 0)", 
        "stride": "(1, 1)"
      }, 
      "inputs": [[346, 0, 0], [347, 0, 0], [348, 0, 0]]
    }, 
    {
      "op": "Reshape", 
      "name": "face_rpn_cls_score_reshape_stride16", 
      "attrs": {"shape": "(0, 2, -1, 0)"}, 
      "inputs": [[349, 0, 0]]
    }, 
    {
      "op": "SoftmaxActivation", 
      "name": "face_rpn_cls_prob_stride16", 
      "attrs": {"mode": "channel"}, 
      "inputs": [[350, 0, 0]]
    }, 
    {
      "op": "Reshape", 
      "name": "face_rpn_cls_prob_reshape_stride16", 
      "attrs": {"shape": "(0, 4, -1, 0)"}, 
      "inputs": [[351, 0, 0]]
    }, 
    {
      "op": "null", 
      "name": "face_rpn_bbox_pred_stride16_weight", 
      "attrs": {
        "__init__": "[\"normal\", {\"sigma\": 0.01}]", 
        "__lr_mult__": "1.0"
      }, 
      "inputs": []
    }, 
    {
      "op": "null", 
      "name": "face_rpn_bbox_pred_stride16_bias", 
      "attrs": {
        "__init__": "[\"constant\", {\"value\": 0.0}]", 
        "__lr_mult__": "2.0", 
        "__wd_mult__": "0.0"
      }, 
      "inputs": []
    }, 
    {
      "op": "Convolution", 
      "name": "face_rpn_bbox_pred_stride16", 
      "attrs": {
        "kernel": "(1, 1)", 
        "num_filter": "8", 
        "pad": "(0, 0)", 
        "stride": "(1, 1)"
      }, 
      "inputs": [[346, 0, 0], [353, 0, 0], [354, 0, 0]]
    }, 
    {
      "op": "null", 
      "name": "face_rpn_landmark_pred_stride16_weight", 
      "attrs": {
        "__init__": "[\"normal\", {\"sigma\": 0.01}]", 
        "__lr_mult__": "1.0"
      }, 
      "inputs": []
    }, 
    {
      "op": "null", 
      "name": "face_rpn_landmark_pred_stride16_bias", 
      "attrs": {
        "__init__": "[\"constant\", {\"value\": 0.0}]", 
        "__lr_mult__": "2.0", 
        "__wd_mult__": "0.0"
      }, 
      "inputs": []
    }, 
    {
      "op": "Convolution", 
      "name": "face_rpn_landmark_pred_stride16", 
      "attrs": {
        "kernel": "(1, 1)", 
        "num_filter": "20", 
        "pad": "(0, 0)", 
        "stride": "(1, 1)"
      }, 
      "inputs": [[346, 0, 0], [356, 0, 0], [357, 0, 0]]
    }, 
    {
      "op": "null", 
      "name": "rf_c1_red_conv_weight", 
      "attrs": {
        "__init__": "[\"normal\", {\"sigma\": 0.01}]", 
        "__lr_mult__": "1.0"
      }, 
      "inputs": []
    }, 
    {
      "op": "null", 
      "name": "rf_c1_red_conv_bias", 
      "attrs": {
        "__init__": "[\"constant\", {\"value\": 0.0}]", 
        "__lr_mult__": "2.0", 
        "__wd_mult__": "1.0"
      }, 
      "inputs": []
    }, 
    {
      "op": "Convolution", 
      "name": "rf_c1_red_conv", 
      "attrs": {
        "kernel": "(1, 1)", 
        "num_filter": "64", 
        "pad": "(0, 0)", 
        "stride": "(1, 1)"
      }, 
      "inputs": [[88, 0, 0], [359, 0, 0], [360, 0, 0]]
    }, 
    {
      "op": "null", 
      "name": "rf_c1_red_conv_bn_gamma", 
      "attrs": {
        "eps": "2e-05", 
        "fix_gamma": "False", 
        "momentum": "0.9"
      }, 
      "inputs": []
    }, 
    {
      "op": "null", 
      "name": "rf_c1_red_conv_bn_beta", 
      "attrs": {
        "eps": "2e-05", 
        "fix_gamma": "False", 
        "momentum": "0.9"
      }, 
      "inputs": []
    }, 
    {
      "op": "null", 
      "name": "rf_c1_red_conv_bn_moving_mean", 
      "attrs": {
        "__init__": "[\"zero\", {}]", 
        "eps": "2e-05", 
        "fix_gamma": "False", 
        "momentum": "0.9"
      }, 
      "inputs": []
    }, 
    {
      "op": "null", 
      "name": "rf_c1_red_conv_bn_moving_var", 
      "attrs": {
        "__init__": "[\"one\", {}]", 
        "eps": "2e-05", 
        "fix_gamma": "False", 
        "momentum": "0.9"
      }, 
      "inputs": []
    }, 
    {
      "op": "BatchNorm", 
      "name": "rf_c1_red_conv_bn", 
      "attrs": {
        "eps": "2e-05", 
        "fix_gamma": "False", 
        "momentum": "0.9"
      }, 
      "inputs": [[361, 0, 0], [362, 0, 0], [363, 0, 0], [364, 0, 1], [365, 0, 1]]
    }, 
    {
      "op": "Activation", 
      "name": "rf_c1_red_conv_relu", 
      "attrs": {"act_type": "relu"}, 
      "inputs": [[366, 0, 0]]
    }, 
    {
      "op": "UpSampling", 
      "name": "rf_c2_upsampling", 
      "attrs": {
        "num_args": "1", 
        "sample_type": "nearest", 
        "scale": "2", 
        "workspace": "512"
      }, 
      "inputs": [[302, 0, 0]]
    }, 
    {
      "op": "Crop", 
      "name": "crop1", 
      "attrs": {"num_args": "2"}, 
      "inputs": [[368, 0, 0], [367, 0, 0]]
    }, 
    {
      "op": "elemwise_add", 
      "name": "_plus1", 
      "inputs": [[367, 0, 0], [369, 0, 0]]
    }, 
    {
      "op": "null", 
      "name": "rf_c1_aggr_weight", 
      "attrs": {
        "__init__": "[\"normal\", {\"sigma\": 0.01}]", 
        "__lr_mult__": "1.0"
      }, 
      "inputs": []
    }, 
    {
      "op": "null", 
      "name": "rf_c1_aggr_bias", 
      "attrs": {
        "__init__": "[\"constant\", {\"value\": 0.0}]", 
        "__lr_mult__": "2.0", 
        "__wd_mult__": "1.0"
      }, 
      "inputs": []
    }, 
    {
      "op": "Convolution", 
      "name": "rf_c1_aggr", 
      "attrs": {
        "kernel": "(3, 3)", 
        "num_filter": "64", 
        "pad": "(1, 1)", 
        "stride": "(1, 1)"
      }, 
      "inputs": [[370, 0, 0], [371, 0, 0], [372, 0, 0]]
    }, 
    {
      "op": "null", 
      "name": "rf_c1_aggr_bn_gamma", 
      "attrs": {
        "eps": "2e-05", 
        "fix_gamma": "False", 
        "momentum": "0.9"
      }, 
      "inputs": []
    }, 
    {
      "op": "null", 
      "name": "rf_c1_aggr_bn_beta", 
      "attrs": {
        "eps": "2e-05", 
        "fix_gamma": "False", 
        "momentum": "0.9"
      }, 
      "inputs": []
    }, 
    {
      "op": "null", 
      "name": "rf_c1_aggr_bn_moving_mean", 
      "attrs": {
        "__init__": "[\"zero\", {}]", 
        "eps": "2e-05", 
        "fix_gamma": "False", 
        "momentum": "0.9"
      }, 
      "inputs": []
    }, 
    {
      "op": "null", 
      "name": "rf_c1_aggr_bn_moving_var", 
      "attrs": {
        "__init__": "[\"one\", {}]", 
        "eps": "2e-05", 
        "fix_gamma": "False", 
        "momentum": "0.9"
      }, 
      "inputs": []
    }, 
    {
      "op": "BatchNorm", 
      "name": "rf_c1_aggr_bn", 
      "attrs": {
        "eps": "2e-05", 
        "fix_gamma": "False", 
        "momentum": "0.9"
      }, 
      "inputs": [[373, 0, 0], [374, 0, 0], [375, 0, 0], [376, 0, 1], [377, 0, 1]]
    }, 
    {
      "op": "Activation", 
      "name": "rf_c1_aggr_relu", 
      "attrs": {"act_type": "relu"}, 
      "inputs": [[378, 0, 0]]
    }, 
    {
      "op": "null", 
      "name": "rf_c1_det_conv1_weight", 
      "attrs": {
        "__init__": "[\"normal\", {\"sigma\": 0.01}]", 
        "__lr_mult__": "1.0"
      }, 
      "inputs": []
    }, 
    {
      "op": "null", 
      "name": "rf_c1_det_conv1_bias", 
      "attrs": {
        "__init__": "[\"constant\", {\"value\": 0.0}]", 
        "__lr_mult__": "2.0", 
        "__wd_mult__": "0.0"
      }, 
      "inputs": []
    }, 
    {
      "op": "Convolution", 
      "name": "rf_c1_det_conv1", 
      "attrs": {
        "kernel": "(3, 3)", 
        "num_filter": "32", 
        "pad": "(1, 1)", 
        "stride": "(1, 1)"
      }, 
      "inputs": [[379, 0, 0], [380, 0, 0], [381, 0, 0]]
    }, 
    {
      "op": "null", 
      "name": "rf_c1_det_conv1_bn_gamma", 
      "attrs": {
        "eps": "2e-05", 
        "fix_gamma": "False", 
        "momentum": "0.9"
      }, 
      "inputs": []
    }, 
    {
      "op": "null", 
      "name": "rf_c1_det_conv1_bn_beta", 
      "attrs": {
        "eps": "2e-05", 
        "fix_gamma": "False", 
        "momentum": "0.9"
      }, 
      "inputs": []
    }, 
    {
      "op": "null", 
      "name": "rf_c1_det_conv1_bn_moving_mean", 
      "attrs": {
        "__init__": "[\"zero\", {}]", 
        "eps": "2e-05", 
        "fix_gamma": "False", 
        "momentum": "0.9"
      }, 
      "inputs": []
    }, 
    {
      "op": "null", 
      "name": "rf_c1_det_conv1_bn_moving_var", 
      "attrs": {
        "__init__": "[\"one\", {}]", 
        "eps": "2e-05", 
        "fix_gamma": "False", 
        "momentum": "0.9"
      }, 
      "inputs": []
    }, 
    {
      "op": "BatchNorm", 
      "name": "rf_c1_det_conv1_bn", 
      "attrs": {
        "eps": "2e-05", 
        "fix_gamma": "False", 
        "momentum": "0.9"
      }, 
      "inputs": [[382, 0, 0], [383, 0, 0], [384, 0, 0], [385, 0, 1], [386, 0, 1]]
    }, 
    {
      "op": "null", 
      "name": "rf_c1_det_context_conv1_weight", 
      "attrs": {
        "__init__": "[\"normal\", {\"sigma\": 0.01}]", 
        "__lr_mult__": "1.0"
      }, 
      "inputs": []
    }, 
    {
      "op": "null", 
      "name": "rf_c1_det_context_conv1_bias", 
      "attrs": {
        "__init__": "[\"constant\", {\"value\": 0.0}]", 
        "__lr_mult__": "2.0", 
        "__wd_mult__": "0.0"
      }, 
      "inputs": []
    }, 
    {
      "op": "Convolution", 
      "name": "rf_c1_det_context_conv1", 
      "attrs": {
        "kernel": "(3, 3)", 
        "num_filter": "16", 
        "pad": "(1, 1)", 
        "stride": "(1, 1)"
      }, 
      "inputs": [[379, 0, 0], [388, 0, 0], [389, 0, 0]]
    }, 
    {
      "op": "null", 
      "name": "rf_c1_det_context_conv1_bn_gamma", 
      "attrs": {
        "eps": "2e-05", 
        "fix_gamma": "False", 
        "momentum": "0.9"
      }, 
      "inputs": []
    }, 
    {
      "op": "null", 
      "name": "rf_c1_det_context_conv1_bn_beta", 
      "attrs": {
        "eps": "2e-05", 
        "fix_gamma": "False", 
        "momentum": "0.9"
      }, 
      "inputs": []
    }, 
    {
      "op": "null", 
      "name": "rf_c1_det_context_conv1_bn_moving_mean", 
      "attrs": {
        "__init__": "[\"zero\", {}]", 
        "eps": "2e-05", 
        "fix_gamma": "False", 
        "momentum": "0.9"
      }, 
      "inputs": []
    }, 
    {
      "op": "null", 
      "name": "rf_c1_det_context_conv1_bn_moving_var", 
      "attrs": {
        "__init__": "[\"one\", {}]", 
        "eps": "2e-05", 
        "fix_gamma": "False", 
        "momentum": "0.9"
      }, 
      "inputs": []
    }, 
    {
      "op": "BatchNorm", 
      "name": "rf_c1_det_context_conv1_bn", 
      "attrs": {
        "eps": "2e-05", 
        "fix_gamma": "False", 
        "momentum": "0.9"
      }, 
      "inputs": [[390, 0, 0], [391, 0, 0], [392, 0, 0], [393, 0, 1], [394, 0, 1]]
    }, 
    {
      "op": "Activation", 
      "name": "rf_c1_det_context_conv1_relu", 
      "attrs": {"act_type": "relu"}, 
      "inputs": [[395, 0, 0]]
    }, 
    {
      "op": "null", 
      "name": "rf_c1_det_context_conv2_weight", 
      "attrs": {
        "__init__": "[\"normal\", {\"sigma\": 0.01}]", 
        "__lr_mult__": "1.0"
      }, 
      "inputs": []
    }, 
    {
      "op": "null", 
      "name": "rf_c1_det_context_conv2_bias", 
      "attrs": {
        "__init__": "[\"constant\", {\"value\": 0.0}]", 
        "__lr_mult__": "2.0", 
        "__wd_mult__": "0.0"
      }, 
      "inputs": []
    }, 
    {
      "op": "Convolution", 
      "name": "rf_c1_det_context_conv2", 
      "attrs": {
        "kernel": "(3, 3)", 
        "num_filter": "16", 
        "pad": "(1, 1)", 
        "stride": "(1, 1)"
      }, 
      "inputs": [[396, 0, 0], [397, 0, 0], [398, 0, 0]]
    }, 
    {
      "op": "null", 
      "name": "rf_c1_det_context_conv2_bn_gamma", 
      "attrs": {
        "eps": "2e-05", 
        "fix_gamma": "False", 
        "momentum": "0.9"
      }, 
      "inputs": []
    }, 
    {
      "op": "null", 
      "name": "rf_c1_det_context_conv2_bn_beta", 
      "attrs": {
        "eps": "2e-05", 
        "fix_gamma": "False", 
        "momentum": "0.9"
      }, 
      "inputs": []
    }, 
    {
      "op": "null", 
      "name": "rf_c1_det_context_conv2_bn_moving_mean", 
      "attrs": {
        "__init__": "[\"zero\", {}]", 
        "eps": "2e-05", 
        "fix_gamma": "False", 
        "momentum": "0.9"
      }, 
      "inputs": []
    }, 
    {
      "op": "null", 
      "name": "rf_c1_det_context_conv2_bn_moving_var", 
      "attrs": {
        "__init__": "[\"one\", {}]", 
        "eps": "2e-05", 
        "fix_gamma": "False", 
        "momentum": "0.9"
      }, 
      "inputs": []
    }, 
    {
      "op": "BatchNorm", 
      "name": "rf_c1_det_context_conv2_bn", 
      "attrs": {
        "eps": "2e-05", 
        "fix_gamma": "False", 
        "momentum": "0.9"
      }, 
      "inputs": [[399, 0, 0], [400, 0, 0], [401, 0, 0], [402, 0, 1], [403, 0, 1]]
    }, 
    {
      "op": "null", 
      "name": "rf_c1_det_context_conv3_1_weight", 
      "attrs": {
        "__init__": "[\"normal\", {\"sigma\": 0.01}]", 
        "__lr_mult__": "1.0"
      }, 
      "inputs": []
    }, 
    {
      "op": "null", 
      "name": "rf_c1_det_context_conv3_1_bias", 
      "attrs": {
        "__init__": "[\"constant\", {\"value\": 0.0}]", 
        "__lr_mult__": "2.0", 
        "__wd_mult__": "0.0"
      }, 
      "inputs": []
    }, 
    {
      "op": "Convolution", 
      "name": "rf_c1_det_context_conv3_1", 
      "attrs": {
        "kernel": "(3, 3)", 
        "num_filter": "16", 
        "pad": "(1, 1)", 
        "stride": "(1, 1)"
      }, 
      "inputs": [[396, 0, 0], [405, 0, 0], [406, 0, 0]]
    }, 
    {
      "op": "null", 
      "name": "rf_c1_det_context_conv3_1_bn_gamma", 
      "attrs": {
        "eps": "2e-05", 
        "fix_gamma": "False", 
        "momentum": "0.9"
      }, 
      "inputs": []
    }, 
    {
      "op": "null", 
      "name": "rf_c1_det_context_conv3_1_bn_beta", 
      "attrs": {
        "eps": "2e-05", 
        "fix_gamma": "False", 
        "momentum": "0.9"
      }, 
      "inputs": []
    }, 
    {
      "op": "null", 
      "name": "rf_c1_det_context_conv3_1_bn_moving_mean", 
      "attrs": {
        "__init__": "[\"zero\", {}]", 
        "eps": "2e-05", 
        "fix_gamma": "False", 
        "momentum": "0.9"
      }, 
      "inputs": []
    }, 
    {
      "op": "null", 
      "name": "rf_c1_det_context_conv3_1_bn_moving_var", 
      "attrs": {
        "__init__": "[\"one\", {}]", 
        "eps": "2e-05", 
        "fix_gamma": "False", 
        "momentum": "0.9"
      }, 
      "inputs": []
    }, 
    {
      "op": "BatchNorm", 
      "name": "rf_c1_det_context_conv3_1_bn", 
      "attrs": {
        "eps": "2e-05", 
        "fix_gamma": "False", 
        "momentum": "0.9"
      }, 
      "inputs": [[407, 0, 0], [408, 0, 0], [409, 0, 0], [410, 0, 1], [411, 0, 1]]
    }, 
    {
      "op": "Activation", 
      "name": "rf_c1_det_context_conv3_1_relu", 
      "attrs": {"act_type": "relu"}, 
      "inputs": [[412, 0, 0]]
    }, 
    {
      "op": "null", 
      "name": "rf_c1_det_context_conv3_2_weight", 
      "attrs": {
        "__init__": "[\"normal\", {\"sigma\": 0.01}]", 
        "__lr_mult__": "1.0"
      }, 
      "inputs": []
    }, 
    {
      "op": "null", 
      "name": "rf_c1_det_context_conv3_2_bias", 
      "attrs": {
        "__init__": "[\"constant\", {\"value\": 0.0}]", 
        "__lr_mult__": "2.0", 
        "__wd_mult__": "0.0"
      }, 
      "inputs": []
    }, 
    {
      "op": "Convolution", 
      "name": "rf_c1_det_context_conv3_2", 
      "attrs": {
        "kernel": "(3, 3)", 
        "num_filter": "16", 
        "pad": "(1, 1)", 
        "stride": "(1, 1)"
      }, 
      "inputs": [[413, 0, 0], [414, 0, 0], [415, 0, 0]]
    }, 
    {
      "op": "null", 
      "name": "rf_c1_det_context_conv3_2_bn_gamma", 
      "attrs": {
        "eps": "2e-05", 
        "fix_gamma": "False", 
        "momentum": "0.9"
      }, 
      "inputs": []
    }, 
    {
      "op": "null", 
      "name": "rf_c1_det_context_conv3_2_bn_beta", 
      "attrs": {
        "eps": "2e-05", 
        "fix_gamma": "False", 
        "momentum": "0.9"
      }, 
      "inputs": []
    }, 
    {
      "op": "null", 
      "name": "rf_c1_det_context_conv3_2_bn_moving_mean", 
      "attrs": {
        "__init__": "[\"zero\", {}]", 
        "eps": "2e-05", 
        "fix_gamma": "False", 
        "momentum": "0.9"
      }, 
      "inputs": []
    }, 
    {
      "op": "null", 
      "name": "rf_c1_det_context_conv3_2_bn_moving_var", 
      "attrs": {
        "__init__": "[\"one\", {}]", 
        "eps": "2e-05", 
        "fix_gamma": "False", 
        "momentum": "0.9"
      }, 
      "inputs": []
    }, 
    {
      "op": "BatchNorm", 
      "name": "rf_c1_det_context_conv3_2_bn", 
      "attrs": {
        "eps": "2e-05", 
        "fix_gamma": "False", 
        "momentum": "0.9"
      }, 
      "inputs": [[416, 0, 0], [417, 0, 0], [418, 0, 0], [419, 0, 1], [420, 0, 1]]
    }, 
    {
      "op": "Concat", 
      "name": "rf_c1_det_concat", 
      "attrs": {
        "dim": "1", 
        "num_args": "3"
      }, 
      "inputs": [[387, 0, 0], [404, 0, 0], [421, 0, 0]]
    }, 
    {
      "op": "Activation", 
      "name": "rf_c1_det_concat_relu", 
      "attrs": {"act_type": "relu"}, 
      "inputs": [[422, 0, 0]]
    }, 
    {
      "op": "null", 
      "name": "face_rpn_cls_score_stride8_weight", 
      "attrs": {
        "__init__": "[\"normal\", {\"sigma\": 0.01}]", 
        "__lr_mult__": "1.0"
      }, 
      "inputs": []
    }, 
    {
      "op": "null", 
      "name": "face_rpn_cls_score_stride8_bias", 
      "attrs": {
        "__init__": "[\"constant\", {\"value\": 0.0}]", 
        "__lr_mult__": "2.0", 
        "__wd_mult__": "0.0"
      }, 
      "inputs": []
    }, 
    {
      "op": "Convolution", 
      "name": "face_rpn_cls_score_stride8", 
      "attrs": {
        "kernel": "(1, 1)", 
        "num_filter": "4", 
        "pad": "(0, 0)", 
        "stride": "(1, 1)"
      }, 
      "inputs": [[423, 0, 0], [424, 0, 0], [425, 0, 0]]
    }, 
    {
      "op": "Reshape", 
      "name": "face_rpn_cls_score_reshape_stride8", 
      "attrs": {"shape": "(0, 2, -1, 0)"}, 
      "inputs": [[426, 0, 0]]
    }, 
    {
      "op": "SoftmaxActivation", 
      "name": "face_rpn_cls_prob_stride8", 
      "attrs": {"mode": "channel"}, 
      "inputs": [[427, 0, 0]]
    }, 
    {
      "op": "Reshape", 
      "name": "face_rpn_cls_prob_reshape_stride8", 
      "attrs": {"shape": "(0, 4, -1, 0)"}, 
      "inputs": [[428, 0, 0]]
    }, 
    {
      "op": "null", 
      "name": "face_rpn_bbox_pred_stride8_weight", 
      "attrs": {
        "__init__": "[\"normal\", {\"sigma\": 0.01}]", 
        "__lr_mult__": "1.0"
      }, 
      "inputs": []
    }, 
    {
      "op": "null", 
      "name": "face_rpn_bbox_pred_stride8_bias", 
      "attrs": {
        "__init__": "[\"constant\", {\"value\": 0.0}]", 
        "__lr_mult__": "2.0", 
        "__wd_mult__": "0.0"
      }, 
      "inputs": []
    }, 
    {
      "op": "Convolution", 
      "name": "face_rpn_bbox_pred_stride8", 
      "attrs": {
        "kernel": "(1, 1)", 
        "num_filter": "8", 
        "pad": "(0, 0)", 
        "stride": "(1, 1)"
      }, 
      "inputs": [[423, 0, 0], [430, 0, 0], [431, 0, 0]]
    }, 
    {
      "op": "null", 
      "name": "face_rpn_landmark_pred_stride8_weight", 
      "attrs": {
        "__init__": "[\"normal\", {\"sigma\": 0.01}]", 
        "__lr_mult__": "1.0"
      }, 
      "inputs": []
    }, 
    {
      "op": "null", 
      "name": "face_rpn_landmark_pred_stride8_bias", 
      "attrs": {
        "__init__": "[\"constant\", {\"value\": 0.0}]", 
        "__lr_mult__": "2.0", 
        "__wd_mult__": "0.0"
      }, 
      "inputs": []
    }, 
    {
      "op": "Convolution", 
      "name": "face_rpn_landmark_pred_stride8", 
      "attrs": {
        "kernel": "(1, 1)", 
        "num_filter": "20", 
        "pad": "(0, 0)", 
        "stride": "(1, 1)"
      }, 
      "inputs": [[423, 0, 0], [433, 0, 0], [434, 0, 0]]
    }
  ], 
  "arg_nodes": [
    0, 
    1, 
    3, 
    4, 
    5, 
    6, 
    9, 
    11, 
    12, 
    13, 
    14, 
    17, 
    19, 
    20, 
    21, 
    22, 
    25, 
    27, 
    28, 
    29, 
    30, 
    33, 
    35, 
    36, 
    37, 
    38, 
    41, 
    43, 
    44, 
    45, 
    46, 
    49, 
    51, 
    52, 
    53, 
    54, 
    57, 
    59, 
    60, 
    61, 
    62, 
    65, 
    67, 
    68, 
    69, 
    70, 
    73, 
    75, 
    76, 
    77, 
    78, 
    81, 
    83, 
    84, 
    85, 
    86, 
    89, 
    91, 
    92, 
    93, 
    94, 
    97, 
    99, 
    100, 
    101, 
    102, 
    105, 
    107, 
    108, 
    109, 
    110, 
    113, 
    115, 
    116, 
    117, 
    118, 
    121, 
    123, 
    124, 
    125, 
    126, 
    129, 
    131, 
    132, 
    133, 
    134, 
    137, 
    139, 
    140, 
    141, 
    142, 
    145, 
    147, 
    148, 
    149, 
    150, 
    153, 
    155, 
    156, 
    157, 
    158, 
    161, 
    163, 
    164, 
    165, 
    166, 
    169, 
    171, 
    172, 
    173, 
    174, 
    177, 
    179, 
    180, 
    181, 
    182, 
    185, 
    187, 
    188, 
    189, 
    190, 
    193, 
    195, 
    196, 
    197, 
    198, 
    201, 
    203, 
    204, 
    205, 
    206, 
    209, 
    211, 
    212, 
    213, 
    214, 
    217, 
    218, 
    220, 
    221, 
    222, 
    223, 
    226, 
    227, 
    229, 
    230, 
    231, 
    232, 
    234, 
    235, 
    237, 
    238, 
    239, 
    240, 
    243, 
    244, 
    246, 
    247, 
    248, 
    249, 
    251, 
    252, 
    254, 
    255, 
    256, 
    257, 
    260, 
    261, 
    263, 
    264, 
    265, 
    266, 
    270, 
    271, 
    276, 
    277, 
    279, 
    280, 
    282, 
    283, 
    285, 
    286, 
    287, 
    288, 
    294, 
    295, 
    297, 
    298, 
    299, 
    300, 
    303, 
    304, 
    306, 
    307, 
    308, 
    309, 
    311, 
    312, 
    314, 
    315, 
    316, 
    317, 
    320, 
    321, 
    323, 
    324, 
    325, 
    326, 
    328, 
    329, 
    331, 
    332, 
    333, 
    334, 
    337, 
    338, 
    340, 
    341, 
    342, 
    343, 
    347, 
    348, 
    353, 
    354, 
    356, 
    357, 
    359, 
    360, 
    362, 
    363, 
    364, 
    365, 
    371, 
    372, 
    374, 
    375, 
    376, 
    377, 
    380, 
    381, 
    383, 
    384, 
    385, 
    386, 
    388, 
    389, 
    391, 
    392, 
    393, 
    394, 
    397, 
    398, 
    400, 
    401, 
    402, 
    403, 
    405, 
    406, 
    408, 
    409, 
    410, 
    411, 
    414, 
    415, 
    417, 
    418, 
    419, 
    420, 
    424, 
    425, 
    430, 
    431, 
    433, 
    434
  ], 
  "node_row_ptr": [
    0, 
    1, 
    2, 
    3, 
    4, 
    5, 
    6, 
    7, 
    10, 
    11, 
    12, 
    13, 
    14, 
    15, 
    16, 
    17, 
    20, 
    21, 
    22, 
    23, 
    24, 
    25, 
    26, 
    27, 
    30, 
    31, 
    32, 
    33, 
    34, 
    35, 
    36, 
    37, 
    40, 
    41, 
    42, 
    43, 
    44, 
    45, 
    46, 
    47, 
    50, 
    51, 
    52, 
    53, 
    54, 
    55, 
    56, 
    57, 
    60, 
    61, 
    62, 
    63, 
    64, 
    65, 
    66, 
    67, 
    70, 
    71, 
    72, 
    73, 
    74, 
    75, 
    76, 
    77, 
    80, 
    81, 
    82, 
    83, 
    84, 
    85, 
    86, 
    87, 
    90, 
    91, 
    92, 
    93, 
    94, 
    95, 
    96, 
    97, 
    100, 
    101, 
    102, 
    103, 
    104, 
    105, 
    106, 
    107, 
    110, 
    111, 
    112, 
    113, 
    114, 
    115, 
    116, 
    117, 
    120, 
    121, 
    122, 
    123, 
    124, 
    125, 
    126, 
    127, 
    130, 
    131, 
    132, 
    133, 
    134, 
    135, 
    136, 
    137, 
    140, 
    141, 
    142, 
    143, 
    144, 
    145, 
    146, 
    147, 
    150, 
    151, 
    152, 
    153, 
    154, 
    155, 
    156, 
    157, 
    160, 
    161, 
    162, 
    163, 
    164, 
    165, 
    166, 
    167, 
    170, 
    171, 
    172, 
    173, 
    174, 
    175, 
    176, 
    177, 
    180, 
    181, 
    182, 
    183, 
    184, 
    185, 
    186, 
    187, 
    190, 
    191, 
    192, 
    193, 
    194, 
    195, 
    196, 
    197, 
    200, 
    201, 
    202, 
    203, 
    204, 
    205, 
    206, 
    207, 
    210, 
    211, 
    212, 
    213, 
    214, 
    215, 
    216, 
    217, 
    220, 
    221, 
    222, 
    223, 
    224, 
    225, 
    226, 
    227, 
    230, 
    231, 
    232, 
    233, 
    234, 
    235, 
    236, 
    237, 
    240, 
    241, 
    242, 
    243, 
    244, 
    245, 
    246, 
    247, 
    250, 
    251, 
    252, 
    253, 
    254, 
    255, 
    256, 
    257, 
    260, 
    261, 
    262, 
    263, 
    264, 
    265, 
    266, 
    267, 
    270, 
    271, 
    272, 
    273, 
    274, 
    275, 
    276, 
    277, 
    278, 
    281, 
    282, 
    283, 
    284, 
    285, 
    286, 
    287, 
    288, 
    289, 
    292, 
    293, 
    294, 
    295, 
    296, 
    297, 
    298, 
    299, 
    302, 
    303, 
    304, 
    305, 
    306, 
    307, 
    308, 
    309, 
    310, 
    313, 
    314, 
    315, 
    316, 
    317, 
    318, 
    319, 
    320, 
    323, 
    324, 
    325, 
    326, 
    327, 
    328, 
    329, 
    330, 
    331, 
    334, 
    335, 
    336, 
    337, 
    338, 
    339, 
    340, 
    341, 
    342, 
    343, 
    344, 
    345, 
    346, 
    347, 
    348, 
    349, 
    350, 
    351, 
    352, 
    353, 
    354, 
    355, 
    358, 
    359, 
    360, 
    361, 
    362, 
    363, 
    364, 
    365, 
    366, 
    367, 
    368, 
    369, 
    372, 
    373, 
    374, 
    375, 
    376, 
    377, 
    378, 
    379, 
    380, 
    383, 
    384, 
    385, 
    386, 
    387, 
    388, 
    389, 
    390, 
    393, 
    394, 
    395, 
    396, 
    397, 
    398, 
    399, 
    400, 
    401, 
    404, 
    405, 
    406, 
    407, 
    408, 
    409, 
    410, 
    411, 
    414, 
    415, 
    416, 
    417, 
    418, 
    419, 
    420, 
    421, 
    422, 
    425, 
    426, 
    427, 
    428, 
    429, 
    430, 
    431, 
    432, 
    433, 
    434, 
    435, 
    436, 
    437, 
    438, 
    439, 
    440, 
    441, 
    442, 
    443, 
    444, 
    445, 
    446, 
    449, 
    450, 
    451, 
    452, 
    453, 
    454, 
    455, 
    456, 
    457, 
    458, 
    459, 
    460, 
    463, 
    464, 
    465, 
    466, 
    467, 
    468, 
    469, 
    470, 
    471, 
    474, 
    475, 
    476, 
    477, 
    478, 
    479, 
    480, 
    481, 
    484, 
    485, 
    486, 
    487, 
    488, 
    489, 
    490, 
    491, 
    492, 
    495, 
    496, 
    497, 
    498, 
    499, 
    500, 
    501, 
    502, 
    505, 
    506, 
    507, 
    508, 
    509, 
    510, 
    511, 
    512, 
    513, 
    516, 
    517, 
    518, 
    519, 
    520, 
    521, 
    522, 
    523, 
    524, 
    525, 
    526, 
    527, 
    528, 
    529, 
    530
  ], 
  "heads": [[275, 0, 0], [278, 0, 0], [281, 0, 0], [352, 0, 0], [355, 0, 0], [358, 0, 0], [429, 0, 0], [432, 0, 0], [435, 0, 0]], 
  "attrs": {"mxnet_version": ["int", 10300]}
}
